<?xml version="1.0"?>
<net name="main_graph" version="11">
	<layers>
		<layer id="3" name="speech" type="Parameter" version="opset1">
			<data shape="?,?,560" element_type="f32" />
			<output>
				<port id="0" precision="FP32" names="speech">
					<dim>-1</dim>
					<dim>-1</dim>
					<dim>560</dim>
				</port>
			</output>
		</layer>
		<layer id="2" name="speech_lengths" type="Parameter" version="opset1">
			<data shape="?" element_type="i32" />
			<output>
				<port id="0" precision="I32" names="speech_lengths">
					<dim>-1</dim>
				</port>
			</output>
		</layer>
		<layer id="1" name="language" type="Parameter" version="opset1">
			<data shape="?" element_type="i32" />
			<output>
				<port id="0" precision="I32" names="/Cast_output_0,language">
					<dim>-1</dim>
				</port>
			</output>
		</layer>
		<layer id="0" name="textnorm" type="Parameter" version="opset1">
			<data shape="?" element_type="i32" />
			<output>
				<port id="0" precision="I32" names="/Cast_1_output_0,textnorm">
					<dim>-1</dim>
				</port>
			</output>
		</layer>
		<layer id="4" name="/encoder/Constant_compressed" type="Const" version="opset1">
			<data element_type="f16" shape="" offset="0" size="2" />
			<output>
				<port id="0" precision="FP16" names="/encoder/Constant_output_0" />
			</output>
		</layer>
		<layer id="5" name="/encoder/Constant" type="Convert" version="opset1">
			<data destination_type="f32" />
			<rt_info>
				<attribute name="decompression" version="0" />
			</rt_info>
			<input>
				<port id="0" precision="FP16" />
			</input>
			<output>
				<port id="1" precision="FP32" />
			</output>
		</layer>
		<layer id="6" name="Constant_41610" type="Const" version="opset1">
			<data element_type="i32" shape="1" offset="2" size="4" />
			<output>
				<port id="0" precision="I32">
					<dim>1</dim>
				</port>
			</output>
		</layer>
		<layer id="7" name="/Add_1" type="Add" version="opset1">
			<data auto_broadcast="numpy" />
			<input>
				<port id="0" precision="I32">
					<dim>-1</dim>
				</port>
				<port id="1" precision="I32">
					<dim>1</dim>
				</port>
			</input>
			<output>
				<port id="2" precision="I32" names="/Add_1_output_0">
					<dim>-1</dim>
				</port>
			</output>
		</layer>
		<layer id="8" name="Constant_972" type="Const" version="opset1">
			<data element_type="i64" shape="1" offset="6" size="8" />
			<output>
				<port id="0" precision="I64">
					<dim>1</dim>
				</port>
			</output>
		</layer>
		<layer id="9" name="/encoder/ReduceMax" type="ReduceMax" version="opset1">
			<data keep_dims="false" />
			<input>
				<port id="0" precision="I32">
					<dim>-1</dim>
				</port>
				<port id="1" precision="I64">
					<dim>1</dim>
				</port>
			</input>
			<output>
				<port id="2" precision="I32" names="/encoder/ReduceMax_output_0" />
			</output>
		</layer>
		<layer id="10" name="/encoder/Cast" type="Convert" version="opset1">
			<data destination_type="f32" />
			<input>
				<port id="0" precision="I32" />
			</input>
			<output>
				<port id="1" precision="FP32" names="/encoder/Cast_output_0" />
			</output>
		</layer>
		<layer id="11" name="/encoder/Constant_1_compressed" type="Const" version="opset1">
			<data element_type="f16" shape="" offset="14" size="2" />
			<output>
				<port id="0" precision="FP16" names="/encoder/Constant_1_output_0" />
			</output>
		</layer>
		<layer id="12" name="/encoder/Constant_1" type="Convert" version="opset1">
			<data destination_type="f32" />
			<rt_info>
				<attribute name="decompression" version="0" />
			</rt_info>
			<input>
				<port id="0" precision="FP16" />
			</input>
			<output>
				<port id="1" precision="FP32" />
			</output>
		</layer>
		<layer id="13" name="/encoder/Range" type="Range" version="opset4">
			<data output_type="f32" />
			<input>
				<port id="0" precision="FP32" />
				<port id="1" precision="FP32" />
				<port id="2" precision="FP32" />
			</input>
			<output>
				<port id="3" precision="FP32" names="/encoder/Range_output_0">
					<dim>-1</dim>
				</port>
			</output>
		</layer>
		<layer id="14" name="/encoder/Cast_1" type="Convert" version="opset1">
			<data destination_type="i64" />
			<input>
				<port id="0" precision="FP32">
					<dim>-1</dim>
				</port>
			</input>
			<output>
				<port id="1" precision="I64" names="/encoder/Cast_1_output_0">
					<dim>-1</dim>
				</port>
			</output>
		</layer>
		<layer id="15" name="/encoder/Constant_2" type="Const" version="opset1">
			<data element_type="i64" shape="1" offset="16" size="8" />
			<output>
				<port id="0" precision="I64" names="/encoder/Constant_2_output_0">
					<dim>1</dim>
				</port>
			</output>
		</layer>
		<layer id="16" name="/encoder/Unsqueeze" type="Unsqueeze" version="opset1">
			<input>
				<port id="0" precision="I32">
					<dim>-1</dim>
				</port>
				<port id="1" precision="I64">
					<dim>1</dim>
				</port>
			</input>
			<output>
				<port id="2" precision="I32" names="/encoder/Unsqueeze_output_0">
					<dim>-1</dim>
					<dim>1</dim>
				</port>
			</output>
		</layer>
		<layer id="17" name="/encoder/Cast_2" type="Convert" version="opset1">
			<data destination_type="i64" />
			<input>
				<port id="0" precision="I32">
					<dim>-1</dim>
					<dim>1</dim>
				</port>
			</input>
			<output>
				<port id="1" precision="I64" names="/encoder/Cast_2_output_0">
					<dim>-1</dim>
					<dim>1</dim>
				</port>
			</output>
		</layer>
		<layer id="18" name="/encoder/Less" type="Less" version="opset1">
			<data auto_broadcast="numpy" />
			<input>
				<port id="0" precision="I64">
					<dim>-1</dim>
				</port>
				<port id="1" precision="I64">
					<dim>-1</dim>
					<dim>1</dim>
				</port>
			</input>
			<output>
				<port id="2" precision="BOOL" names="/encoder/Less_output_0">
					<dim>-1</dim>
					<dim>-1</dim>
				</port>
			</output>
		</layer>
		<layer id="19" name="/encoder/Cast_3" type="Convert" version="opset1">
			<data destination_type="f32" />
			<input>
				<port id="0" precision="BOOL">
					<dim>-1</dim>
					<dim>-1</dim>
				</port>
			</input>
			<output>
				<port id="1" precision="FP32" names="/encoder/Cast_3_output_0,/encoder/Cast_4_output_0">
					<dim>-1</dim>
					<dim>-1</dim>
				</port>
			</output>
		</layer>
		<layer id="20" name="/encoder/Constant_3" type="Const" version="opset1">
			<data element_type="i64" shape="1" offset="24" size="8" />
			<output>
				<port id="0" precision="I64" names="/encoder/Constant_3_output_0">
					<dim>1</dim>
				</port>
			</output>
		</layer>
		<layer id="21" name="/encoder/Unsqueeze_1" type="Unsqueeze" version="opset1">
			<input>
				<port id="0" precision="FP32">
					<dim>-1</dim>
					<dim>-1</dim>
				</port>
				<port id="1" precision="I64">
					<dim>1</dim>
				</port>
			</input>
			<output>
				<port id="2" precision="FP32" names="/encoder/Unsqueeze_1_output_0">
					<dim>-1</dim>
					<dim>1</dim>
					<dim>-1</dim>
				</port>
			</output>
		</layer>
		<layer id="22" name="/encoder/Constant_5" type="Const" version="opset1">
			<data element_type="i64" shape="1" offset="24" size="8" />
			<output>
				<port id="0" precision="I64" names="/encoder/Constant_5_output_0">
					<dim>1</dim>
				</port>
			</output>
		</layer>
		<layer id="23" name="/encoder/Squeeze" type="Squeeze" version="opset1">
			<input>
				<port id="0" precision="FP32">
					<dim>-1</dim>
					<dim>1</dim>
					<dim>-1</dim>
				</port>
				<port id="1" precision="I64">
					<dim>1</dim>
				</port>
			</input>
			<output>
				<port id="2" precision="FP32" names="/encoder/Squeeze_output_0">
					<dim>-1</dim>
					<dim>-1</dim>
				</port>
			</output>
		</layer>
		<layer id="24" name="Constant_3085" type="Const" version="opset1">
			<data element_type="i64" shape="1" offset="24" size="8" />
			<output>
				<port id="0" precision="I64" names="onnx::ReduceSum_1127">
					<dim>1</dim>
				</port>
			</output>
		</layer>
		<layer id="25" name="/encoder/ReduceSum" type="ReduceSum" version="opset1">
			<data keep_dims="false" />
			<input>
				<port id="0" precision="FP32">
					<dim>-1</dim>
					<dim>-1</dim>
				</port>
				<port id="1" precision="I64">
					<dim>1</dim>
				</port>
			</input>
			<output>
				<port id="2" precision="FP32" names="/encoder/ReduceSum_output_0">
					<dim>-1</dim>
				</port>
			</output>
		</layer>
		<layer id="26" name="encoder_out_lens" type="Convert" version="opset1">
			<data destination_type="i32" />
			<input>
				<port id="0" precision="FP32">
					<dim>-1</dim>
				</port>
			</input>
			<output>
				<port id="1" precision="I32" names="encoder_out_lens">
					<dim>-1</dim>
				</port>
			</output>
		</layer>
		<layer id="28" name="Constant_42248_compressed" type="Const" version="opset1">
			<data element_type="f16" shape="1, 1, 25055" offset="32" size="50110" />
			<output>
				<port id="0" precision="FP16">
					<dim>1</dim>
					<dim>1</dim>
					<dim>25055</dim>
				</port>
			</output>
		</layer>
		<layer id="29" name="Constant_42248" type="Convert" version="opset1">
			<data destination_type="f32" />
			<rt_info>
				<attribute name="decompression" version="0" />
			</rt_info>
			<input>
				<port id="0" precision="FP16">
					<dim>1</dim>
					<dim>1</dim>
					<dim>25055</dim>
				</port>
			</input>
			<output>
				<port id="1" precision="FP32">
					<dim>1</dim>
					<dim>1</dim>
					<dim>25055</dim>
				</port>
			</output>
		</layer>
		<layer id="30" name="Constant_41618_compressed" type="Const" version="opset1">
			<data element_type="f16" shape="1, 1, 512" offset="50142" size="1024" />
			<output>
				<port id="0" precision="FP16">
					<dim>1</dim>
					<dim>1</dim>
					<dim>512</dim>
				</port>
			</output>
		</layer>
		<layer id="31" name="Constant_41618" type="Convert" version="opset1">
			<data destination_type="f32" />
			<rt_info>
				<attribute name="decompression" version="0" />
			</rt_info>
			<input>
				<port id="0" precision="FP16">
					<dim>1</dim>
					<dim>1</dim>
					<dim>512</dim>
				</port>
			</input>
			<output>
				<port id="1" precision="FP32">
					<dim>1</dim>
					<dim>1</dim>
					<dim>512</dim>
				</port>
			</output>
		</layer>
		<layer id="32" name="/encoder/encoders0.0/self_attn/Constant_14" type="Const" version="opset1">
			<data element_type="i64" shape="1" offset="24" size="8" />
			<output>
				<port id="0" precision="I64" names="/encoder/encoders0.0/self_attn/Constant_14_output_0">
					<dim>1</dim>
				</port>
			</output>
		</layer>
		<layer id="33" name="/encoder/encoders0.0/self_attn/Unsqueeze_7" type="Unsqueeze" version="opset1">
			<input>
				<port id="0" precision="FP32">
					<dim>-1</dim>
					<dim>1</dim>
					<dim>-1</dim>
				</port>
				<port id="1" precision="I64">
					<dim>1</dim>
				</port>
			</input>
			<output>
				<port id="2" precision="FP32" names="/encoder/encoders0.0/self_attn/Unsqueeze_7_output_0">
					<dim>-1</dim>
					<dim>1</dim>
					<dim>1</dim>
					<dim>-1</dim>
				</port>
			</output>
		</layer>
		<layer id="34" name="Constant_41611_compressed" type="Const" version="opset1">
			<data element_type="f16" shape="1, 1, 1, 1" offset="0" size="2" />
			<output>
				<port id="0" precision="FP16">
					<dim>1</dim>
					<dim>1</dim>
					<dim>1</dim>
					<dim>1</dim>
				</port>
			</output>
		</layer>
		<layer id="35" name="Constant_41611" type="Convert" version="opset1">
			<data destination_type="f32" />
			<rt_info>
				<attribute name="decompression" version="0" />
			</rt_info>
			<input>
				<port id="0" precision="FP16">
					<dim>1</dim>
					<dim>1</dim>
					<dim>1</dim>
					<dim>1</dim>
				</port>
			</input>
			<output>
				<port id="1" precision="FP32">
					<dim>1</dim>
					<dim>1</dim>
					<dim>1</dim>
					<dim>1</dim>
				</port>
			</output>
		</layer>
		<layer id="36" name="/encoder/encoders0.0/self_attn/Equal" type="Equal" version="opset1">
			<data auto_broadcast="numpy" />
			<input>
				<port id="0" precision="FP32">
					<dim>-1</dim>
					<dim>1</dim>
					<dim>1</dim>
					<dim>-1</dim>
				</port>
				<port id="1" precision="FP32">
					<dim>1</dim>
					<dim>1</dim>
					<dim>1</dim>
					<dim>1</dim>
				</port>
			</input>
			<output>
				<port id="2" precision="BOOL" names="/encoder/encoders.0/self_attn/Cast_1_output_0,/encoder/encoders.0/self_attn/Cast_output_0,/encoder/encoders.1/self_attn/Cast_1_output_0,/encoder/encoders.1/self_attn/Cast_output_0,/encoder/encoders.10/self_attn/Cast_1_output_0,/encoder/encoders.10/self_attn/Cast_output_0,/encoder/encoders.11/self_attn/Cast_1_output_0,/encoder/encoders.11/self_attn/Cast_output_0,/encoder/encoders.12/self_attn/Cast_1_output_0,/encoder/encoders.12/self_attn/Cast_output_0,/encoder/encoders.13/self_attn/Cast_1_output_0,/encoder/encoders.13/self_attn/Cast_output_0,/encoder/encoders.14/self_attn/Cast_1_output_0,/encoder/encoders.14/self_attn/Cast_output_0,/encoder/encoders.15/self_attn/Cast_1_output_0,/encoder/encoders.15/self_attn/Cast_output_0,/encoder/encoders.16/self_attn/Cast_1_output_0,/encoder/encoders.16/self_attn/Cast_output_0,/encoder/encoders.17/self_attn/Cast_1_output_0,/encoder/encoders.17/self_attn/Cast_output_0,/encoder/encoders.18/self_attn/Cast_1_output_0,/encoder/encoders.18/self_attn/Cast_output_0,/encoder/encoders.19/self_attn/Cast_1_output_0,/encoder/encoders.19/self_attn/Cast_output_0,/encoder/encoders.2/self_attn/Cast_1_output_0,/encoder/encoders.2/self_attn/Cast_output_0,/encoder/encoders.20/self_attn/Cast_1_output_0,/encoder/encoders.20/self_attn/Cast_output_0,/encoder/encoders.21/self_attn/Cast_1_output_0,/encoder/encoders.21/self_attn/Cast_output_0,/encoder/encoders.22/self_attn/Cast_1_output_0,/encoder/encoders.22/self_attn/Cast_output_0,/encoder/encoders.23/self_attn/Cast_1_output_0,/encoder/encoders.23/self_attn/Cast_output_0,/encoder/encoders.24/self_attn/Cast_1_output_0,/encoder/encoders.24/self_attn/Cast_output_0,/encoder/encoders.25/self_attn/Cast_1_output_0,/encoder/encoders.25/self_attn/Cast_output_0,/encoder/encoders.26/self_attn/Cast_1_output_0,/encoder/encoders.26/self_attn/Cast_output_0,/encoder/encoders.27/self_attn/Cast_1_output_0,/encoder/encoders.27/self_attn/Cast_output_0,/encoder/encoders.28/self_attn/Cast_1_output_0,/encoder/encoders.28/self_attn/Cast_output_0,/encoder/encoders.29/self_attn/Cast_1_output_0,/encoder/encoders.29/self_attn/Cast_output_0,/encoder/encoders.3/self_attn/Cast_1_output_0,/encoder/encoders.3/self_attn/Cast_output_0,/encoder/encoders.30/self_attn/Cast_1_output_0,/encoder/encoders.30/self_attn/Cast_output_0,/encoder/encoders.31/self_attn/Cast_1_output_0,/encoder/encoders.31/self_attn/Cast_output_0,/encoder/encoders.32/self_attn/Cast_1_output_0,/encoder/encoders.32/self_attn/Cast_output_0,/encoder/encoders.33/self_attn/Cast_1_output_0,/encoder/encoders.33/self_attn/Cast_output_0,/encoder/encoders.34/self_attn/Cast_1_output_0,/encoder/encoders.34/self_attn/Cast_output_0,/encoder/encoders.35/self_attn/Cast_1_output_0,/encoder/encoders.35/self_attn/Cast_output_0,/encoder/encoders.36/self_attn/Cast_1_output_0,/encoder/encoders.36/self_attn/Cast_output_0,/encoder/encoders.37/self_attn/Cast_1_output_0,/encoder/encoders.37/self_attn/Cast_output_0,/encoder/encoders.38/self_attn/Cast_1_output_0,/encoder/encoders.38/self_attn/Cast_output_0,/encoder/encoders.39/self_attn/Cast_1_output_0,/encoder/encoders.39/self_attn/Cast_output_0,/encoder/encoders.4/self_attn/Cast_1_output_0,/encoder/encoders.4/self_attn/Cast_output_0,/encoder/encoders.40/self_attn/Cast_1_output_0,/encoder/encoders.40/self_attn/Cast_output_0,/encoder/encoders.41/self_attn/Cast_1_output_0,/encoder/encoders.41/self_attn/Cast_output_0,/encoder/encoders.42/self_attn/Cast_1_output_0,/encoder/encoders.42/self_attn/Cast_output_0,/encoder/encoders.43/self_attn/Cast_1_output_0,/encoder/encoders.43/self_attn/Cast_output_0,/encoder/encoders.44/self_attn/Cast_1_output_0,/encoder/encoders.44/self_attn/Cast_output_0,/encoder/encoders.45/self_attn/Cast_1_output_0,/encoder/encoders.45/self_attn/Cast_output_0,/encoder/encoders.46/self_attn/Cast_1_output_0,/encoder/encoders.46/self_attn/Cast_output_0,/encoder/encoders.47/self_attn/Cast_1_output_0,/encoder/encoders.47/self_attn/Cast_output_0,/encoder/encoders.48/self_attn/Cast_1_output_0,/encoder/encoders.48/self_attn/Cast_output_0,/encoder/encoders.5/self_attn/Cast_1_output_0,/encoder/encoders.5/self_attn/Cast_output_0,/encoder/encoders.6/self_attn/Cast_1_output_0,/encoder/encoders.6/self_attn/Cast_output_0,/encoder/encoders.7/self_attn/Cast_1_output_0,/encoder/encoders.7/self_attn/Cast_output_0,/encoder/encoders.8/self_attn/Cast_1_output_0,/encoder/encoders.8/self_attn/Cast_output_0,/encoder/encoders.9/self_attn/Cast_1_output_0,/encoder/encoders.9/self_attn/Cast_output_0,/encoder/encoders0.0/self_attn/Cast_1_output_0,/encoder/encoders0.0/self_attn/Cast_output_0,/encoder/encoders0.0/self_attn/Equal_output_0,/encoder/tp_encoders.0/self_attn/Cast_1_output_0,/encoder/tp_encoders.0/self_attn/Cast_output_0,/encoder/tp_encoders.1/self_attn/Cast_1_output_0,/encoder/tp_encoders.1/self_attn/Cast_output_0,/encoder/tp_encoders.10/self_attn/Cast_1_output_0,/encoder/tp_encoders.10/self_attn/Cast_output_0,/encoder/tp_encoders.11/self_attn/Cast_1_output_0,/encoder/tp_encoders.11/self_attn/Cast_output_0,/encoder/tp_encoders.12/self_attn/Cast_1_output_0,/encoder/tp_encoders.12/self_attn/Cast_output_0,/encoder/tp_encoders.13/self_attn/Cast_1_output_0,/encoder/tp_encoders.13/self_attn/Cast_output_0,/encoder/tp_encoders.14/self_attn/Cast_1_output_0,/encoder/tp_encoders.14/self_attn/Cast_output_0,/encoder/tp_encoders.15/self_attn/Cast_1_output_0,/encoder/tp_encoders.15/self_attn/Cast_output_0,/encoder/tp_encoders.16/self_attn/Cast_1_output_0,/encoder/tp_encoders.16/self_attn/Cast_output_0,/encoder/tp_encoders.17/self_attn/Cast_1_output_0,/encoder/tp_encoders.17/self_attn/Cast_output_0,/encoder/tp_encoders.18/self_attn/Cast_1_output_0,/encoder/tp_encoders.18/self_attn/Cast_output_0,/encoder/tp_encoders.19/self_attn/Cast_1_output_0,/encoder/tp_encoders.19/self_attn/Cast_output_0,/encoder/tp_encoders.2/self_attn/Cast_1_output_0,/encoder/tp_encoders.2/self_attn/Cast_output_0,/encoder/tp_encoders.3/self_attn/Cast_1_output_0,/encoder/tp_encoders.3/self_attn/Cast_output_0,/encoder/tp_encoders.4/self_attn/Cast_1_output_0,/encoder/tp_encoders.4/self_attn/Cast_output_0,/encoder/tp_encoders.5/self_attn/Cast_1_output_0,/encoder/tp_encoders.5/self_attn/Cast_output_0,/encoder/tp_encoders.6/self_attn/Cast_1_output_0,/encoder/tp_encoders.6/self_attn/Cast_output_0,/encoder/tp_encoders.7/self_attn/Cast_1_output_0,/encoder/tp_encoders.7/self_attn/Cast_output_0,/encoder/tp_encoders.8/self_attn/Cast_1_output_0,/encoder/tp_encoders.8/self_attn/Cast_output_0,/encoder/tp_encoders.9/self_attn/Cast_1_output_0,/encoder/tp_encoders.9/self_attn/Cast_output_0">
					<dim>-1</dim>
					<dim>1</dim>
					<dim>1</dim>
					<dim>-1</dim>
				</port>
			</output>
		</layer>
		<layer id="37" name="/encoder/encoders0.0/self_attn/Constant_17_compressed" type="Const" version="opset1">
			<data element_type="f16" shape="" offset="0" size="2" />
			<output>
				<port id="0" precision="FP16" names="/encoder/encoders0.0/self_attn/Constant_17_output_0" />
			</output>
		</layer>
		<layer id="38" name="/encoder/encoders0.0/self_attn/Constant_17" type="Convert" version="opset1">
			<data destination_type="f32" />
			<rt_info>
				<attribute name="decompression" version="0" />
			</rt_info>
			<input>
				<port id="0" precision="FP16" />
			</input>
			<output>
				<port id="1" precision="FP32" />
			</output>
		</layer>
		<layer id="39" name="/encoder/encoders0.0/self_attn/Constant_16" type="Const" version="opset1">
			<data element_type="f32" shape="" offset="51166" size="4" />
			<output>
				<port id="0" precision="FP32" names="/encoder/encoders0.0/self_attn/Constant_16_output_0" />
			</output>
		</layer>
		<layer id="40" name="Constant_41616_compressed" type="Const" version="opset1">
			<data element_type="f16" shape="1, 1, 1536" offset="51170" size="3072" />
			<output>
				<port id="0" precision="FP16">
					<dim>1</dim>
					<dim>1</dim>
					<dim>1536</dim>
				</port>
			</output>
		</layer>
		<layer id="41" name="Constant_41616" type="Convert" version="opset1">
			<data destination_type="f32" />
			<rt_info>
				<attribute name="decompression" version="0" />
			</rt_info>
			<input>
				<port id="0" precision="FP16">
					<dim>1</dim>
					<dim>1</dim>
					<dim>1536</dim>
				</port>
			</input>
			<output>
				<port id="1" precision="FP32">
					<dim>1</dim>
					<dim>1</dim>
					<dim>1536</dim>
				</port>
			</output>
		</layer>
		<layer id="42" name="embed.weight_compressed" type="Const" version="opset1">
			<data element_type="f16" shape="16, 560" offset="54242" size="17920" />
			<output>
				<port id="0" precision="FP16" names="embed.weight">
					<dim>16</dim>
					<dim>560</dim>
				</port>
			</output>
		</layer>
		<layer id="43" name="embed.weight" type="Convert" version="opset1">
			<data destination_type="f32" />
			<rt_info>
				<attribute name="decompression" version="0" />
			</rt_info>
			<input>
				<port id="0" precision="FP16">
					<dim>16</dim>
					<dim>560</dim>
				</port>
			</input>
			<output>
				<port id="1" precision="FP32">
					<dim>16</dim>
					<dim>560</dim>
				</port>
			</output>
		</layer>
		<layer id="44" name="Constant_923" type="Const" version="opset1">
			<data element_type="i64" shape="" offset="6" size="8" />
			<output>
				<port id="0" precision="I64" />
			</output>
		</layer>
		<layer id="45" name="/embed/Gather" type="Gather" version="opset8">
			<data batch_dims="0" />
			<input>
				<port id="0" precision="FP32">
					<dim>16</dim>
					<dim>560</dim>
				</port>
				<port id="1" precision="I32">
					<dim>-1</dim>
				</port>
				<port id="2" precision="I64" />
			</input>
			<output>
				<port id="3" precision="FP32" names="/embed/Gather_output_0">
					<dim>-1</dim>
					<dim>560</dim>
				</port>
			</output>
		</layer>
		<layer id="46" name="/Constant" type="Const" version="opset1">
			<data element_type="i64" shape="1" offset="24" size="8" />
			<output>
				<port id="0" precision="I64" names="/Constant_output_0">
					<dim>1</dim>
				</port>
			</output>
		</layer>
		<layer id="47" name="/Unsqueeze" type="Unsqueeze" version="opset1">
			<input>
				<port id="0" precision="FP32">
					<dim>-1</dim>
					<dim>560</dim>
				</port>
				<port id="1" precision="I64">
					<dim>1</dim>
				</port>
			</input>
			<output>
				<port id="2" precision="FP32" names="/Unsqueeze_output_0">
					<dim>-1</dim>
					<dim>1</dim>
					<dim>560</dim>
				</port>
			</output>
		</layer>
		<layer id="48" name="/Expand_compressed" type="Const" version="opset1">
			<data element_type="f16" shape="1, 2, 560" offset="72162" size="2240" />
			<output>
				<port id="0" precision="FP16" names="/Expand_output_0">
					<dim>1</dim>
					<dim>2</dim>
					<dim>560</dim>
				</port>
			</output>
		</layer>
		<layer id="49" name="/Expand" type="Convert" version="opset1">
			<data destination_type="f32" />
			<rt_info>
				<attribute name="decompression" version="0" />
			</rt_info>
			<input>
				<port id="0" precision="FP16">
					<dim>1</dim>
					<dim>2</dim>
					<dim>560</dim>
				</port>
			</input>
			<output>
				<port id="1" precision="FP32">
					<dim>1</dim>
					<dim>2</dim>
					<dim>560</dim>
				</port>
			</output>
		</layer>
		<layer id="50" name="Constant_928" type="Const" version="opset1">
			<data element_type="i64" shape="" offset="6" size="8" />
			<output>
				<port id="0" precision="I64" />
			</output>
		</layer>
		<layer id="51" name="/embed_1/Gather" type="Gather" version="opset8">
			<data batch_dims="0" />
			<input>
				<port id="0" precision="FP32">
					<dim>16</dim>
					<dim>560</dim>
				</port>
				<port id="1" precision="I32">
					<dim>-1</dim>
				</port>
				<port id="2" precision="I64" />
			</input>
			<output>
				<port id="3" precision="FP32" names="/embed_1/Gather_output_0">
					<dim>-1</dim>
					<dim>560</dim>
				</port>
			</output>
		</layer>
		<layer id="52" name="/Constant_1" type="Const" version="opset1">
			<data element_type="i64" shape="1" offset="24" size="8" />
			<output>
				<port id="0" precision="I64" names="/Constant_1_output_0">
					<dim>1</dim>
				</port>
			</output>
		</layer>
		<layer id="53" name="/Unsqueeze_1" type="Unsqueeze" version="opset1">
			<input>
				<port id="0" precision="FP32">
					<dim>-1</dim>
					<dim>560</dim>
				</port>
				<port id="1" precision="I64">
					<dim>1</dim>
				</port>
			</input>
			<output>
				<port id="2" precision="FP32" names="/Unsqueeze_1_output_0">
					<dim>-1</dim>
					<dim>1</dim>
					<dim>560</dim>
				</port>
			</output>
		</layer>
		<layer id="54" name="/Concat" type="Concat" version="opset1">
			<data axis="1" />
			<input>
				<port id="0" precision="FP32">
					<dim>-1</dim>
					<dim>1</dim>
					<dim>560</dim>
				</port>
				<port id="1" precision="FP32">
					<dim>-1</dim>
					<dim>-1</dim>
					<dim>560</dim>
				</port>
			</input>
			<output>
				<port id="2" precision="FP32" names="/Concat_output_0">
					<dim>-1</dim>
					<dim>-1</dim>
					<dim>560</dim>
				</port>
			</output>
		</layer>
		<layer id="55" name="ShapeOf_43174" type="ShapeOf" version="opset3">
			<data output_type="i64" />
			<input>
				<port id="0" precision="FP32">
					<dim>-1</dim>
					<dim>-1</dim>
					<dim>560</dim>
				</port>
			</input>
			<output>
				<port id="1" precision="I64">
					<dim>3</dim>
				</port>
			</output>
		</layer>
		<layer id="56" name="Constant_43175" type="Const" version="opset1">
			<data element_type="i64" shape="1" offset="6" size="8" />
			<rt_info>
				<attribute name="precise" version="0" />
			</rt_info>
			<output>
				<port id="0" precision="I64">
					<dim>1</dim>
				</port>
			</output>
		</layer>
		<layer id="57" name="Constant_43176" type="Const" version="opset1">
			<data element_type="i64" shape="" offset="6" size="8" />
			<rt_info>
				<attribute name="precise" version="0" />
			</rt_info>
			<output>
				<port id="0" precision="I64" />
			</output>
		</layer>
		<layer id="58" name="Gather_43177" type="Gather" version="opset8">
			<data batch_dims="0" />
			<input>
				<port id="0" precision="I64">
					<dim>3</dim>
				</port>
				<port id="1" precision="I64">
					<dim>1</dim>
				</port>
				<port id="2" precision="I64" />
			</input>
			<output>
				<port id="3" precision="I64" names="/Gather_output_0,/Unsqueeze_2_output_0,/Unsqueeze_3_output_0,/encoder/encoders.0/self_attn/Gather_2_output_0,/encoder/encoders.0/self_attn/Gather_3_output_0,/encoder/encoders.0/self_attn/Unsqueeze_6_output_0,/encoder/encoders.0/self_attn/Unsqueeze_7_output_0,/encoder/encoders.1/self_attn/Gather_2_output_0,/encoder/encoders.1/self_attn/Gather_3_output_0,/encoder/encoders.1/self_attn/Unsqueeze_6_output_0,/encoder/encoders.1/self_attn/Unsqueeze_7_output_0,/encoder/encoders.10/self_attn/Gather_2_output_0,/encoder/encoders.10/self_attn/Gather_3_output_0,/encoder/encoders.10/self_attn/Unsqueeze_6_output_0,/encoder/encoders.10/self_attn/Unsqueeze_7_output_0,/encoder/encoders.11/self_attn/Gather_2_output_0,/encoder/encoders.11/self_attn/Gather_3_output_0,/encoder/encoders.11/self_attn/Unsqueeze_6_output_0,/encoder/encoders.11/self_attn/Unsqueeze_7_output_0,/encoder/encoders.12/self_attn/Gather_2_output_0,/encoder/encoders.12/self_attn/Gather_3_output_0,/encoder/encoders.12/self_attn/Unsqueeze_6_output_0,/encoder/encoders.12/self_attn/Unsqueeze_7_output_0,/encoder/encoders.13/self_attn/Gather_2_output_0,/encoder/encoders.13/self_attn/Gather_3_output_0,/encoder/encoders.13/self_attn/Unsqueeze_6_output_0,/encoder/encoders.13/self_attn/Unsqueeze_7_output_0,/encoder/encoders.14/self_attn/Gather_2_output_0,/encoder/encoders.14/self_attn/Gather_3_output_0,/encoder/encoders.14/self_attn/Unsqueeze_6_output_0,/encoder/encoders.14/self_attn/Unsqueeze_7_output_0,/encoder/encoders.15/self_attn/Gather_2_output_0,/encoder/encoders.15/self_attn/Gather_3_output_0,/encoder/encoders.15/self_attn/Unsqueeze_6_output_0,/encoder/encoders.15/self_attn/Unsqueeze_7_output_0,/encoder/encoders.16/self_attn/Gather_2_output_0,/encoder/encoders.16/self_attn/Gather_3_output_0,/encoder/encoders.16/self_attn/Unsqueeze_6_output_0,/encoder/encoders.16/self_attn/Unsqueeze_7_output_0,/encoder/encoders.17/self_attn/Gather_2_output_0,/encoder/encoders.17/self_attn/Gather_3_output_0,/encoder/encoders.17/self_attn/Unsqueeze_6_output_0,/encoder/encoders.17/self_attn/Unsqueeze_7_output_0,/encoder/encoders.18/self_attn/Gather_2_output_0,/encoder/encoders.18/self_attn/Gather_3_output_0,/encoder/encoders.18/self_attn/Unsqueeze_6_output_0,/encoder/encoders.18/self_attn/Unsqueeze_7_output_0,/encoder/encoders.19/self_attn/Gather_2_output_0,/encoder/encoders.19/self_attn/Gather_3_output_0,/encoder/encoders.19/self_attn/Unsqueeze_6_output_0,/encoder/encoders.19/self_attn/Unsqueeze_7_output_0,/encoder/encoders.2/self_attn/Gather_2_output_0,/encoder/encoders.2/self_attn/Gather_3_output_0,/encoder/encoders.2/self_attn/Unsqueeze_6_output_0,/encoder/encoders.2/self_attn/Unsqueeze_7_output_0,/encoder/encoders.20/self_attn/Gather_2_output_0,/encoder/encoders.20/self_attn/Gather_3_output_0,/encoder/encoders.20/self_attn/Unsqueeze_6_output_0,/encoder/encoders.20/self_attn/Unsqueeze_7_output_0,/encoder/encoders.21/self_attn/Gather_2_output_0,/encoder/encoders.21/self_attn/Gather_3_output_0,/encoder/encoders.21/self_attn/Unsqueeze_6_output_0,/encoder/encoders.21/self_attn/Unsqueeze_7_output_0,/encoder/encoders.22/self_attn/Gather_2_output_0,/encoder/encoders.22/self_attn/Gather_3_output_0,/encoder/encoders.22/self_attn/Unsqueeze_6_output_0,/encoder/encoders.22/self_attn/Unsqueeze_7_output_0,/encoder/encoders.23/self_attn/Gather_2_output_0,/encoder/encoders.23/self_attn/Gather_3_output_0,/encoder/encoders.23/self_attn/Unsqueeze_6_output_0,/encoder/encoders.23/self_attn/Unsqueeze_7_output_0,/encoder/encoders.24/self_attn/Gather_2_output_0,/encoder/encoders.24/self_attn/Gather_3_output_0,/encoder/encoders.24/self_attn/Unsqueeze_6_output_0,/encoder/encoders.24/self_attn/Unsqueeze_7_output_0,/encoder/encoders.25/self_attn/Gather_2_output_0,/encoder/encoders.25/self_attn/Gather_3_output_0,/encoder/encoders.25/self_attn/Unsqueeze_6_output_0,/encoder/encoders.25/self_attn/Unsqueeze_7_output_0,/encoder/encoders.26/self_attn/Gather_2_output_0,/encoder/encoders.26/self_attn/Gather_3_output_0,/encoder/encoders.26/self_attn/Unsqueeze_6_output_0,/encoder/encoders.26/self_attn/Unsqueeze_7_output_0,/encoder/encoders.27/self_attn/Gather_2_output_0,/encoder/encoders.27/self_attn/Gather_3_output_0,/encoder/encoders.27/self_attn/Unsqueeze_6_output_0,/encoder/encoders.27/self_attn/Unsqueeze_7_output_0,/encoder/encoders.28/self_attn/Gather_2_output_0,/encoder/encoders.28/self_attn/Gather_3_output_0,/encoder/encoders.28/self_attn/Unsqueeze_6_output_0,/encoder/encoders.28/self_attn/Unsqueeze_7_output_0,/encoder/encoders.29/self_attn/Gather_2_output_0,/encoder/encoders.29/self_attn/Gather_3_output_0,/encoder/encoders.29/self_attn/Unsqueeze_6_output_0,/encoder/encoders.29/self_attn/Unsqueeze_7_output_0,/encoder/encoders.3/self_attn/Gather_2_output_0,/encoder/encoders.3/self_attn/Gather_3_output_0,/encoder/encoders.3/self_attn/Unsqueeze_6_output_0,/encoder/encoders.3/self_attn/Unsqueeze_7_output_0,/encoder/encoders.30/self_attn/Gather_2_output_0,/encoder/encoders.30/self_attn/Gather_3_output_0,/encoder/encoders.30/self_attn/Unsqueeze_6_output_0,/encoder/encoders.30/self_attn/Unsqueeze_7_output_0,/encoder/encoders.31/self_attn/Gather_2_output_0,/encoder/encoders.31/self_attn/Gather_3_output_0,/encoder/encoders.31/self_attn/Unsqueeze_6_output_0,/encoder/encoders.31/self_attn/Unsqueeze_7_output_0,/encoder/encoders.32/self_attn/Gather_2_output_0,/encoder/encoders.32/self_attn/Gather_3_output_0,/encoder/encoders.32/self_attn/Unsqueeze_6_output_0,/encoder/encoders.32/self_attn/Unsqueeze_7_output_0,/encoder/encoders.33/self_attn/Gather_2_output_0,/encoder/encoders.33/self_attn/Gather_3_output_0,/encoder/encoders.33/self_attn/Unsqueeze_6_output_0,/encoder/encoders.33/self_attn/Unsqueeze_7_output_0,/encoder/encoders.34/self_attn/Gather_2_output_0,/encoder/encoders.34/self_attn/Gather_3_output_0,/encoder/encoders.34/self_attn/Unsqueeze_6_output_0,/encoder/encoders.34/self_attn/Unsqueeze_7_output_0,/encoder/encoders.35/self_attn/Gather_2_output_0,/encoder/encoders.35/self_attn/Gather_3_output_0,/encoder/encoders.35/self_attn/Unsqueeze_6_output_0,/encoder/encoders.35/self_attn/Unsqueeze_7_output_0,/encoder/encoders.36/self_attn/Gather_2_output_0,/encoder/encoders.36/self_attn/Gather_3_output_0,/encoder/encoders.36/self_attn/Unsqueeze_6_output_0,/encoder/encoders.36/self_attn/Unsqueeze_7_output_0,/encoder/encoders.37/self_attn/Gather_2_output_0,/encoder/encoders.37/self_attn/Gather_3_output_0,/encoder/encoders.37/self_attn/Unsqueeze_6_output_0,/encoder/encoders.37/self_attn/Unsqueeze_7_output_0,/encoder/encoders.38/self_attn/Gather_2_output_0,/encoder/encoders.38/self_attn/Gather_3_output_0,/encoder/encoders.38/self_attn/Unsqueeze_6_output_0,/encoder/encoders.38/self_attn/Unsqueeze_7_output_0,/encoder/encoders.39/self_attn/Gather_2_output_0,/encoder/encoders.39/self_attn/Gather_3_output_0,/encoder/encoders.39/self_attn/Unsqueeze_6_output_0,/encoder/encoders.39/self_attn/Unsqueeze_7_output_0,/encoder/encoders.4/self_attn/Gather_2_output_0,/encoder/encoders.4/self_attn/Gather_3_output_0,/encoder/encoders.4/self_attn/Unsqueeze_6_output_0,/encoder/encoders.4/self_attn/Unsqueeze_7_output_0,/encoder/encoders.40/self_attn/Gather_2_output_0,/encoder/encoders.40/self_attn/Gather_3_output_0,/encoder/encoders.40/self_attn/Unsqueeze_6_output_0,/encoder/encoders.40/self_attn/Unsqueeze_7_output_0,/encoder/encoders.41/self_attn/Gather_2_output_0,/encoder/encoders.41/self_attn/Gather_3_output_0,/encoder/encoders.41/self_attn/Unsqueeze_6_output_0,/encoder/encoders.41/self_attn/Unsqueeze_7_output_0,/encoder/encoders.42/self_attn/Gather_2_output_0,/encoder/encoders.42/self_attn/Gather_3_output_0,/encoder/encoders.42/self_attn/Unsqueeze_6_output_0,/encoder/encoders.42/self_attn/Unsqueeze_7_output_0,/encoder/encoders.43/self_attn/Gather_2_output_0,/encoder/encoders.43/self_attn/Gather_3_output_0,/encoder/encoders.43/self_attn/Unsqueeze_6_output_0,/encoder/encoders.43/self_attn/Unsqueeze_7_output_0,/encoder/encoders.44/self_attn/Gather_2_output_0,/encoder/encoders.44/self_attn/Gather_3_output_0,/encoder/encoders.44/self_attn/Unsqueeze_6_output_0,/encoder/encoders.44/self_attn/Unsqueeze_7_output_0,/encoder/encoders.45/self_attn/Gather_2_output_0,/encoder/encoders.45/self_attn/Gather_3_output_0,/encoder/encoders.45/self_attn/Unsqueeze_6_output_0,/encoder/encoders.45/self_attn/Unsqueeze_7_output_0,/encoder/encoders.46/self_attn/Gather_2_output_0,/encoder/encoders.46/self_attn/Gather_3_output_0,/encoder/encoders.46/self_attn/Unsqueeze_6_output_0,/encoder/encoders.46/self_attn/Unsqueeze_7_output_0,/encoder/encoders.47/self_attn/Gather_2_output_0,/encoder/encoders.47/self_attn/Gather_3_output_0,/encoder/encoders.47/self_attn/Unsqueeze_6_output_0,/encoder/encoders.47/self_attn/Unsqueeze_7_output_0,/encoder/encoders.48/self_attn/Gather_2_output_0,/encoder/encoders.48/self_attn/Gather_3_output_0,/encoder/encoders.48/self_attn/Unsqueeze_6_output_0,/encoder/encoders.48/self_attn/Unsqueeze_7_output_0,/encoder/encoders.5/self_attn/Gather_2_output_0,/encoder/encoders.5/self_attn/Gather_3_output_0,/encoder/encoders.5/self_attn/Unsqueeze_6_output_0,/encoder/encoders.5/self_attn/Unsqueeze_7_output_0,/encoder/encoders.6/self_attn/Gather_2_output_0,/encoder/encoders.6/self_attn/Gather_3_output_0,/encoder/encoders.6/self_attn/Unsqueeze_6_output_0,/encoder/encoders.6/self_attn/Unsqueeze_7_output_0,/encoder/encoders.7/self_attn/Gather_2_output_0,/encoder/encoders.7/self_attn/Gather_3_output_0,/encoder/encoders.7/self_attn/Unsqueeze_6_output_0,/encoder/encoders.7/self_attn/Unsqueeze_7_output_0,/encoder/encoders.8/self_attn/Gather_2_output_0,/encoder/encoders.8/self_attn/Gather_3_output_0,/encoder/encoders.8/self_attn/Unsqueeze_6_output_0,/encoder/encoders.8/self_attn/Unsqueeze_7_output_0,/encoder/encoders.9/self_attn/Gather_2_output_0,/encoder/encoders.9/self_attn/Gather_3_output_0,/encoder/encoders.9/self_attn/Unsqueeze_6_output_0,/encoder/encoders.9/self_attn/Unsqueeze_7_output_0,/encoder/encoders0.0/self_attn/Gather_2_output_0,/encoder/encoders0.0/self_attn/Gather_3_output_0,/encoder/encoders0.0/self_attn/Unsqueeze_6_output_0,/encoder/encoders0.0/self_attn/Unsqueeze_8_output_0,/encoder/tp_encoders.0/self_attn/Gather_2_output_0,/encoder/tp_encoders.0/self_attn/Gather_3_output_0,/encoder/tp_encoders.0/self_attn/Unsqueeze_6_output_0,/encoder/tp_encoders.0/self_attn/Unsqueeze_7_output_0,/encoder/tp_encoders.1/self_attn/Gather_2_output_0,/encoder/tp_encoders.1/self_attn/Gather_3_output_0,/encoder/tp_encoders.1/self_attn/Unsqueeze_6_output_0,/encoder/tp_encoders.1/self_attn/Unsqueeze_7_output_0,/encoder/tp_encoders.10/self_attn/Gather_2_output_0,/encoder/tp_encoders.10/self_attn/Gather_3_output_0,/encoder/tp_encoders.10/self_attn/Unsqueeze_6_output_0,/encoder/tp_encoders.10/self_attn/Unsqueeze_7_output_0,/encoder/tp_encoders.11/self_attn/Gather_2_output_0,/encoder/tp_encoders.11/self_attn/Gather_3_output_0,/encoder/tp_encoders.11/self_attn/Unsqueeze_6_output_0,/encoder/tp_encoders.11/self_attn/Unsqueeze_7_output_0,/encoder/tp_encoders.12/self_attn/Gather_2_output_0,/encoder/tp_encoders.12/self_attn/Gather_3_output_0,/encoder/tp_encoders.12/self_attn/Unsqueeze_6_output_0,/encoder/tp_encoders.12/self_attn/Unsqueeze_7_output_0,/encoder/tp_encoders.13/self_attn/Gather_2_output_0,/encoder/tp_encoders.13/self_attn/Gather_3_output_0,/encoder/tp_encoders.13/self_attn/Unsqueeze_6_output_0,/encoder/tp_encoders.13/self_attn/Unsqueeze_7_output_0,/encoder/tp_encoders.14/self_attn/Gather_2_output_0,/encoder/tp_encoders.14/self_attn/Gather_3_output_0,/encoder/tp_encoders.14/self_attn/Unsqueeze_6_output_0,/encoder/tp_encoders.14/self_attn/Unsqueeze_7_output_0,/encoder/tp_encoders.15/self_attn/Gather_2_output_0,/encoder/tp_encoders.15/self_attn/Gather_3_output_0,/encoder/tp_encoders.15/self_attn/Unsqueeze_6_output_0,/encoder/tp_encoders.15/self_attn/Unsqueeze_7_output_0,/encoder/tp_encoders.16/self_attn/Gather_2_output_0,/encoder/tp_encoders.16/self_attn/Gather_3_output_0,/encoder/tp_encoders.16/self_attn/Unsqueeze_6_output_0,/encoder/tp_encoders.16/self_attn/Unsqueeze_7_output_0,/encoder/tp_encoders.17/self_attn/Gather_2_output_0,/encoder/tp_encoders.17/self_attn/Gather_3_output_0,/encoder/tp_encoders.17/self_attn/Unsqueeze_6_output_0,/encoder/tp_encoders.17/self_attn/Unsqueeze_7_output_0,/encoder/tp_encoders.18/self_attn/Gather_2_output_0,/encoder/tp_encoders.18/self_attn/Gather_3_output_0,/encoder/tp_encoders.18/self_attn/Unsqueeze_6_output_0,/encoder/tp_encoders.18/self_attn/Unsqueeze_7_output_0,/encoder/tp_encoders.19/self_attn/Gather_2_output_0,/encoder/tp_encoders.19/self_attn/Gather_3_output_0,/encoder/tp_encoders.19/self_attn/Unsqueeze_6_output_0,/encoder/tp_encoders.19/self_attn/Unsqueeze_7_output_0,/encoder/tp_encoders.2/self_attn/Gather_2_output_0,/encoder/tp_encoders.2/self_attn/Gather_3_output_0,/encoder/tp_encoders.2/self_attn/Unsqueeze_6_output_0,/encoder/tp_encoders.2/self_attn/Unsqueeze_7_output_0,/encoder/tp_encoders.3/self_attn/Gather_2_output_0,/encoder/tp_encoders.3/self_attn/Gather_3_output_0,/encoder/tp_encoders.3/self_attn/Unsqueeze_6_output_0,/encoder/tp_encoders.3/self_attn/Unsqueeze_7_output_0,/encoder/tp_encoders.4/self_attn/Gather_2_output_0,/encoder/tp_encoders.4/self_attn/Gather_3_output_0,/encoder/tp_encoders.4/self_attn/Unsqueeze_6_output_0,/encoder/tp_encoders.4/self_attn/Unsqueeze_7_output_0,/encoder/tp_encoders.5/self_attn/Gather_2_output_0,/encoder/tp_encoders.5/self_attn/Gather_3_output_0,/encoder/tp_encoders.5/self_attn/Unsqueeze_6_output_0,/encoder/tp_encoders.5/self_attn/Unsqueeze_7_output_0,/encoder/tp_encoders.6/self_attn/Gather_2_output_0,/encoder/tp_encoders.6/self_attn/Gather_3_output_0,/encoder/tp_encoders.6/self_attn/Unsqueeze_6_output_0,/encoder/tp_encoders.6/self_attn/Unsqueeze_7_output_0,/encoder/tp_encoders.7/self_attn/Gather_2_output_0,/encoder/tp_encoders.7/self_attn/Gather_3_output_0,/encoder/tp_encoders.7/self_attn/Unsqueeze_6_output_0,/encoder/tp_encoders.7/self_attn/Unsqueeze_7_output_0,/encoder/tp_encoders.8/self_attn/Gather_2_output_0,/encoder/tp_encoders.8/self_attn/Gather_3_output_0,/encoder/tp_encoders.8/self_attn/Unsqueeze_6_output_0,/encoder/tp_encoders.8/self_attn/Unsqueeze_7_output_0,/encoder/tp_encoders.9/self_attn/Gather_2_output_0,/encoder/tp_encoders.9/self_attn/Gather_3_output_0,/encoder/tp_encoders.9/self_attn/Unsqueeze_6_output_0,/encoder/tp_encoders.9/self_attn/Unsqueeze_7_output_0">
					<dim>1</dim>
				</port>
			</output>
		</layer>
		<layer id="59" name="/Constant_4" type="Const" version="opset1">
			<data element_type="i64" shape="1" offset="24" size="8" />
			<rt_info>
				<attribute name="precise" version="0" />
			</rt_info>
			<output>
				<port id="0" precision="I64" names="/Constant_4_output_0">
					<dim>1</dim>
				</port>
			</output>
		</layer>
		<layer id="60" name="/Constant_5" type="Const" version="opset1">
			<data element_type="i64" shape="1" offset="24" size="8" />
			<rt_info>
				<attribute name="precise" version="0" />
			</rt_info>
			<output>
				<port id="0" precision="I64" names="/Constant_5_output_0">
					<dim>1</dim>
				</port>
			</output>
		</layer>
		<layer id="61" name="/Concat_1" type="Concat" version="opset1">
			<data axis="0" />
			<input>
				<port id="0" precision="I64">
					<dim>1</dim>
				</port>
				<port id="1" precision="I64">
					<dim>1</dim>
				</port>
				<port id="2" precision="I64">
					<dim>1</dim>
				</port>
			</input>
			<output>
				<port id="3" precision="I64" names="/Concat_1_output_0,/Concat_2_output_0">
					<dim>3</dim>
				</port>
			</output>
		</layer>
		<layer id="62" name="/Tile" type="Tile" version="opset1">
			<input>
				<port id="0" precision="FP32">
					<dim>1</dim>
					<dim>2</dim>
					<dim>560</dim>
				</port>
				<port id="1" precision="I64">
					<dim>3</dim>
				</port>
			</input>
			<output>
				<port id="2" precision="FP32" names="/Tile_output_0">
					<dim>-1</dim>
					<dim>2</dim>
					<dim>560</dim>
				</port>
			</output>
		</layer>
		<layer id="63" name="/Concat_3" type="Concat" version="opset1">
			<data axis="1" />
			<input>
				<port id="0" precision="FP32">
					<dim>-1</dim>
					<dim>1</dim>
					<dim>560</dim>
				</port>
				<port id="1" precision="FP32">
					<dim>-1</dim>
					<dim>2</dim>
					<dim>560</dim>
				</port>
				<port id="2" precision="FP32">
					<dim>-1</dim>
					<dim>-1</dim>
					<dim>560</dim>
				</port>
			</input>
			<output>
				<port id="3" precision="FP32" names="/Concat_3_output_0">
					<dim>-1</dim>
					<dim>-1</dim>
					<dim>560</dim>
				</port>
			</output>
		</layer>
		<layer id="64" name="Constant_41612_compressed" type="Const" version="opset1">
			<data element_type="f16" shape="1, 1, 1" offset="74402" size="2" />
			<output>
				<port id="0" precision="FP16">
					<dim>1</dim>
					<dim>1</dim>
					<dim>1</dim>
				</port>
			</output>
		</layer>
		<layer id="65" name="Constant_41612" type="Convert" version="opset1">
			<data destination_type="f32" />
			<rt_info>
				<attribute name="decompression" version="0" />
			</rt_info>
			<input>
				<port id="0" precision="FP16">
					<dim>1</dim>
					<dim>1</dim>
					<dim>1</dim>
				</port>
			</input>
			<output>
				<port id="1" precision="FP32">
					<dim>1</dim>
					<dim>1</dim>
					<dim>1</dim>
				</port>
			</output>
		</layer>
		<layer id="66" name="/encoder/Mul" type="Multiply" version="opset1">
			<data auto_broadcast="numpy" />
			<input>
				<port id="0" precision="FP32">
					<dim>-1</dim>
					<dim>-1</dim>
					<dim>560</dim>
				</port>
				<port id="1" precision="FP32">
					<dim>1</dim>
					<dim>1</dim>
					<dim>1</dim>
				</port>
			</input>
			<output>
				<port id="2" precision="FP32" names="/encoder/Mul_output_0">
					<dim>-1</dim>
					<dim>-1</dim>
					<dim>560</dim>
				</port>
			</output>
		</layer>
		<layer id="67" name="/encoder/embed/Constant_3" type="Const" version="opset1">
			<data element_type="i64" shape="" offset="24" size="8" />
			<output>
				<port id="0" precision="I64" names="/encoder/embed/Constant_3_output_0" />
			</output>
		</layer>
		<layer id="68" name="ShapeOf_43182" type="ShapeOf" version="opset3">
			<data output_type="i64" />
			<input>
				<port id="0" precision="FP32">
					<dim>-1</dim>
					<dim>-1</dim>
					<dim>560</dim>
				</port>
			</input>
			<output>
				<port id="1" precision="I64" names="/encoder/embed/Shape_1_output_0,/encoder/embed/Shape_output_0,/encoder/encoders0.0/self_attn/Shape_1_output_0,/encoder/encoders0.0/self_attn/Shape_output_0">
					<dim>3</dim>
				</port>
			</output>
		</layer>
		<layer id="69" name="Constant_43183" type="Const" version="opset1">
			<data element_type="i64" shape="" offset="24" size="8" />
			<output>
				<port id="0" precision="I64" />
			</output>
		</layer>
		<layer id="70" name="Constant_43184" type="Const" version="opset1">
			<data element_type="i64" shape="" offset="6" size="8" />
			<output>
				<port id="0" precision="I64" />
			</output>
		</layer>
		<layer id="71" name="Gather_43185" type="Gather" version="opset8">
			<data batch_dims="0" />
			<input>
				<port id="0" precision="I64">
					<dim>3</dim>
				</port>
				<port id="1" precision="I64" />
				<port id="2" precision="I64" />
			</input>
			<output>
				<port id="3" precision="I64" names="/encoder/embed/Gather_output_0" />
			</output>
		</layer>
		<layer id="72" name="/encoder/embed/Constant_2" type="Const" version="opset1">
			<data element_type="i64" shape="" offset="24" size="8" />
			<output>
				<port id="0" precision="I64" names="/encoder/embed/Constant_2_output_0" />
			</output>
		</layer>
		<layer id="73" name="/encoder/embed/Add" type="Add" version="opset1">
			<data auto_broadcast="numpy" />
			<input>
				<port id="0" precision="I64" />
				<port id="1" precision="I64" />
			</input>
			<output>
				<port id="2" precision="I64" names="/encoder/embed/Add_output_0,/encoder/embed/Cast_output_0" />
			</output>
		</layer>
		<layer id="74" name="/encoder/embed/Constant_4" type="Const" version="opset1">
			<data element_type="i64" shape="" offset="24" size="8" />
			<output>
				<port id="0" precision="I64" names="/encoder/embed/Constant_4_output_0" />
			</output>
		</layer>
		<layer id="75" name="/encoder/embed/Range" type="Range" version="opset4">
			<data output_type="i64" />
			<input>
				<port id="0" precision="I64" />
				<port id="1" precision="I64" />
				<port id="2" precision="I64" />
			</input>
			<output>
				<port id="3" precision="I64" names="/encoder/embed/Range_output_0">
					<dim>-1</dim>
				</port>
			</output>
		</layer>
		<layer id="76" name="/encoder/embed/Constant_5" type="Const" version="opset1">
			<data element_type="i64" shape="1" offset="6" size="8" />
			<output>
				<port id="0" precision="I64" names="/encoder/embed/Constant_5_output_0">
					<dim>1</dim>
				</port>
			</output>
		</layer>
		<layer id="77" name="/encoder/embed/Unsqueeze" type="Unsqueeze" version="opset1">
			<input>
				<port id="0" precision="I64">
					<dim>-1</dim>
				</port>
				<port id="1" precision="I64">
					<dim>1</dim>
				</port>
			</input>
			<output>
				<port id="2" precision="I64" names="/encoder/embed/Unsqueeze_output_0">
					<dim>1</dim>
					<dim>-1</dim>
				</port>
			</output>
		</layer>
		<layer id="78" name="/encoder/embed/Cast_1" type="Convert" version="opset1">
			<data destination_type="f32" />
			<input>
				<port id="0" precision="I64">
					<dim>1</dim>
					<dim>-1</dim>
				</port>
			</input>
			<output>
				<port id="1" precision="FP32" names="/encoder/embed/Cast_1_output_0">
					<dim>1</dim>
					<dim>-1</dim>
				</port>
			</output>
		</layer>
		<layer id="79" name="/encoder/embed/Constant_13" type="Const" version="opset1">
			<data element_type="i64" shape="3" offset="74404" size="24" />
			<rt_info>
				<attribute name="precise" version="0" />
			</rt_info>
			<output>
				<port id="0" precision="I64" names="/encoder/embed/Constant_13_output_0">
					<dim>3</dim>
				</port>
			</output>
		</layer>
		<layer id="80" name="/encoder/embed/Reshape_1" type="Reshape" version="opset1">
			<data special_zero="true" />
			<input>
				<port id="0" precision="FP32">
					<dim>1</dim>
					<dim>-1</dim>
				</port>
				<port id="1" precision="I64">
					<dim>3</dim>
				</port>
			</input>
			<output>
				<port id="2" precision="FP32" names="/encoder/embed/Reshape_1_output_0">
					<dim>1</dim>
					<dim>-1</dim>
					<dim>1</dim>
				</port>
			</output>
		</layer>
		<layer id="81" name="/encoder/embed/Constant_10_compressed" type="Const" version="opset1">
			<data element_type="f16" shape="" offset="0" size="2" />
			<output>
				<port id="0" precision="FP16" names="/encoder/embed/Constant_10_output_0" />
			</output>
		</layer>
		<layer id="82" name="/encoder/embed/Constant_10" type="Convert" version="opset1">
			<data destination_type="f32" />
			<rt_info>
				<attribute name="decompression" version="0" />
			</rt_info>
			<input>
				<port id="0" precision="FP16" />
			</input>
			<output>
				<port id="1" precision="FP32" />
			</output>
		</layer>
		<layer id="83" name="/encoder/embed/Constant_1" type="Const" version="opset1">
			<data element_type="i64" shape="" offset="74428" size="8" />
			<output>
				<port id="0" precision="I64" names="/encoder/embed/Constant_1_output_0" />
			</output>
		</layer>
		<layer id="84" name="Constant_996" type="Const" version="opset1">
			<data element_type="i64" shape="" offset="6" size="8" />
			<output>
				<port id="0" precision="I64" />
			</output>
		</layer>
		<layer id="85" name="/encoder/embed/Gather_1" type="Gather" version="opset8">
			<data batch_dims="0" />
			<input>
				<port id="0" precision="I64">
					<dim>3</dim>
				</port>
				<port id="1" precision="I64" />
				<port id="2" precision="I64" />
			</input>
			<output>
				<port id="3" precision="I64" names="/encoder/embed/Gather_1_output_0" />
			</output>
		</layer>
		<layer id="86" name="Convert_43186" type="Convert" version="opset1">
			<data destination_type="f32" />
			<input>
				<port id="0" precision="I64" />
			</input>
			<output>
				<port id="1" precision="FP32" names="/encoder/embed/Cast_2_output_0" />
			</output>
		</layer>
		<layer id="87" name="Constant_40456_compressed" type="Const" version="opset1">
			<data element_type="f16" shape="" offset="74436" size="2" />
			<output>
				<port id="0" precision="FP16" />
			</output>
		</layer>
		<layer id="88" name="Constant_40456" type="Convert" version="opset1">
			<data destination_type="f32" />
			<rt_info>
				<attribute name="decompression" version="0" />
			</rt_info>
			<input>
				<port id="0" precision="FP16" />
			</input>
			<output>
				<port id="1" precision="FP32" />
			</output>
		</layer>
		<layer id="89" name="/encoder/embed/Div" type="Multiply" version="opset1">
			<data auto_broadcast="numpy" />
			<input>
				<port id="0" precision="FP32" />
				<port id="1" precision="FP32" />
			</input>
			<output>
				<port id="2" precision="FP32" names="/encoder/embed/Cast_3_output_0,/encoder/embed/Div_output_0" />
			</output>
		</layer>
		<layer id="90" name="/encoder/embed/Constant_11_compressed" type="Const" version="opset1">
			<data element_type="f16" shape="" offset="14" size="2" />
			<output>
				<port id="0" precision="FP16" names="/encoder/embed/Constant_11_output_0" />
			</output>
		</layer>
		<layer id="91" name="/encoder/embed/Constant_11" type="Convert" version="opset1">
			<data destination_type="f32" />
			<rt_info>
				<attribute name="decompression" version="0" />
			</rt_info>
			<input>
				<port id="0" precision="FP16" />
			</input>
			<output>
				<port id="1" precision="FP32" />
			</output>
		</layer>
		<layer id="92" name="/encoder/embed/Range_1" type="Range" version="opset4">
			<data output_type="f32" />
			<input>
				<port id="0" precision="FP32" />
				<port id="1" precision="FP32" />
				<port id="2" precision="FP32" />
			</input>
			<output>
				<port id="3" precision="FP32" names="/encoder/embed/Cast_4_output_0,/encoder/embed/Range_1_output_0">
					<dim>-1</dim>
				</port>
			</output>
		</layer>
		<layer id="93" name="/encoder/embed/Constant_9_compressed" type="Const" version="opset1">
			<data element_type="f16" shape="1" offset="74438" size="2" />
			<output>
				<port id="0" precision="FP16" names="/encoder/embed/Constant_9_output_0">
					<dim>1</dim>
				</port>
			</output>
		</layer>
		<layer id="94" name="/encoder/embed/Constant_9" type="Convert" version="opset1">
			<data destination_type="f32" />
			<rt_info>
				<attribute name="decompression" version="0" />
			</rt_info>
			<input>
				<port id="0" precision="FP16">
					<dim>1</dim>
				</port>
			</input>
			<output>
				<port id="1" precision="FP32">
					<dim>1</dim>
				</port>
			</output>
		</layer>
		<layer id="95" name="Constant_40460_compressed" type="Const" version="opset1">
			<data element_type="f16" shape="" offset="74440" size="2" />
			<output>
				<port id="0" precision="FP16" />
			</output>
		</layer>
		<layer id="96" name="Constant_40460" type="Convert" version="opset1">
			<data destination_type="f32" />
			<rt_info>
				<attribute name="decompression" version="0" />
			</rt_info>
			<input>
				<port id="0" precision="FP16" />
			</input>
			<output>
				<port id="1" precision="FP32" />
			</output>
		</layer>
		<layer id="97" name="/encoder/embed/Sub" type="Add" version="opset1">
			<data auto_broadcast="numpy" />
			<input>
				<port id="0" precision="FP32" />
				<port id="1" precision="FP32" />
			</input>
			<output>
				<port id="2" precision="FP32" names="/encoder/embed/Sub_output_0" />
			</output>
		</layer>
		<layer id="98" name="/encoder/embed/Div_1" type="Divide" version="opset1">
			<data auto_broadcast="numpy" m_pythondiv="true" />
			<input>
				<port id="0" precision="FP32">
					<dim>1</dim>
				</port>
				<port id="1" precision="FP32" />
			</input>
			<output>
				<port id="2" precision="FP32" names="/encoder/embed/Div_1_output_0">
					<dim>1</dim>
				</port>
			</output>
		</layer>
		<layer id="99" name="Constant_41613_compressed" type="Const" version="opset1">
			<data element_type="f16" shape="1" offset="74440" size="2" />
			<output>
				<port id="0" precision="FP16">
					<dim>1</dim>
				</port>
			</output>
		</layer>
		<layer id="100" name="Constant_41613" type="Convert" version="opset1">
			<data destination_type="f32" />
			<rt_info>
				<attribute name="decompression" version="0" />
			</rt_info>
			<input>
				<port id="0" precision="FP16">
					<dim>1</dim>
				</port>
			</input>
			<output>
				<port id="1" precision="FP32">
					<dim>1</dim>
				</port>
			</output>
		</layer>
		<layer id="101" name="/encoder/embed/Neg" type="Multiply" version="opset1">
			<data auto_broadcast="numpy" />
			<input>
				<port id="0" precision="FP32">
					<dim>1</dim>
				</port>
				<port id="1" precision="FP32">
					<dim>1</dim>
				</port>
			</input>
			<output>
				<port id="2" precision="FP32" names="/encoder/embed/Neg_output_0">
					<dim>1</dim>
				</port>
			</output>
		</layer>
		<layer id="102" name="/encoder/embed/Mul" type="Multiply" version="opset1">
			<data auto_broadcast="numpy" />
			<input>
				<port id="0" precision="FP32">
					<dim>-1</dim>
				</port>
				<port id="1" precision="FP32">
					<dim>1</dim>
				</port>
			</input>
			<output>
				<port id="2" precision="FP32" names="/encoder/embed/Mul_output_0">
					<dim>-1</dim>
				</port>
			</output>
		</layer>
		<layer id="103" name="/encoder/embed/Exp" type="Exp" version="opset1">
			<input>
				<port id="0" precision="FP32">
					<dim>-1</dim>
				</port>
			</input>
			<output>
				<port id="1" precision="FP32" names="/encoder/embed/Exp_output_0">
					<dim>-1</dim>
				</port>
			</output>
		</layer>
		<layer id="104" name="Constant_43170" type="Const" version="opset1">
			<data element_type="i64" shape="3" offset="74442" size="24" />
			<rt_info>
				<attribute name="precise" version="0" />
			</rt_info>
			<output>
				<port id="0" precision="I64">
					<dim>3</dim>
				</port>
			</output>
		</layer>
		<layer id="105" name="/encoder/embed/Reshape_2" type="Reshape" version="opset1">
			<data special_zero="false" />
			<input>
				<port id="0" precision="FP32">
					<dim>-1</dim>
				</port>
				<port id="1" precision="I64">
					<dim>3</dim>
				</port>
			</input>
			<output>
				<port id="2" precision="FP32" names="/encoder/embed/Reshape_2_output_0">
					<dim>1</dim>
					<dim>1</dim>
					<dim>280</dim>
				</port>
			</output>
		</layer>
		<layer id="106" name="/encoder/embed/Mul_1" type="Multiply" version="opset1">
			<data auto_broadcast="numpy" />
			<input>
				<port id="0" precision="FP32">
					<dim>1</dim>
					<dim>-1</dim>
					<dim>1</dim>
				</port>
				<port id="1" precision="FP32">
					<dim>1</dim>
					<dim>1</dim>
					<dim>280</dim>
				</port>
			</input>
			<output>
				<port id="2" precision="FP32" names="/encoder/embed/Mul_1_output_0">
					<dim>1</dim>
					<dim>-1</dim>
					<dim>280</dim>
				</port>
			</output>
		</layer>
		<layer id="107" name="/encoder/embed/Sin" type="Sin" version="opset1">
			<input>
				<port id="0" precision="FP32">
					<dim>1</dim>
					<dim>-1</dim>
					<dim>280</dim>
				</port>
			</input>
			<output>
				<port id="1" precision="FP32" names="/encoder/embed/Sin_output_0">
					<dim>1</dim>
					<dim>-1</dim>
					<dim>280</dim>
				</port>
			</output>
		</layer>
		<layer id="108" name="/encoder/embed/Cos" type="Cos" version="opset1">
			<input>
				<port id="0" precision="FP32">
					<dim>1</dim>
					<dim>-1</dim>
					<dim>280</dim>
				</port>
			</input>
			<output>
				<port id="1" precision="FP32" names="/encoder/embed/Cos_output_0">
					<dim>1</dim>
					<dim>-1</dim>
					<dim>280</dim>
				</port>
			</output>
		</layer>
		<layer id="109" name="/encoder/embed/Concat_1" type="Concat" version="opset1">
			<data axis="2" />
			<input>
				<port id="0" precision="FP32">
					<dim>1</dim>
					<dim>-1</dim>
					<dim>280</dim>
				</port>
				<port id="1" precision="FP32">
					<dim>1</dim>
					<dim>-1</dim>
					<dim>280</dim>
				</port>
			</input>
			<output>
				<port id="2" precision="FP32" names="/encoder/embed/Cast_5_output_0,/encoder/embed/Cast_6_output_0,/encoder/embed/Concat_1_output_0">
					<dim>1</dim>
					<dim>-1</dim>
					<dim>560</dim>
				</port>
			</output>
		</layer>
		<layer id="110" name="/encoder/embed/Add_1" type="Add" version="opset1">
			<data auto_broadcast="numpy" />
			<input>
				<port id="0" precision="FP32">
					<dim>-1</dim>
					<dim>-1</dim>
					<dim>560</dim>
				</port>
				<port id="1" precision="FP32">
					<dim>1</dim>
					<dim>-1</dim>
					<dim>560</dim>
				</port>
			</input>
			<output>
				<port id="2" precision="FP32" names="/encoder/embed/Add_1_output_0,/encoder/encoders0.0/norm1/Cast_output_0">
					<dim>-1</dim>
					<dim>-1</dim>
					<dim>560</dim>
				</port>
			</output>
		</layer>
		<layer id="111" name="Constant_1156" type="Const" version="opset1">
			<data element_type="i64" shape="1" offset="16" size="8" />
			<output>
				<port id="0" precision="I64">
					<dim>1</dim>
				</port>
			</output>
		</layer>
		<layer id="112" name="/encoder/encoders0.0/norm1/Div" type="MVN" version="opset6">
			<data eps="9.9999997473787516e-06" normalize_variance="true" eps_mode="INSIDE_SQRT" />
			<input>
				<port id="0" precision="FP32">
					<dim>-1</dim>
					<dim>-1</dim>
					<dim>560</dim>
				</port>
				<port id="1" precision="I64">
					<dim>1</dim>
				</port>
			</input>
			<output>
				<port id="2" precision="FP32" names="/encoder/encoders0.0/norm1/Div_output_0">
					<dim>-1</dim>
					<dim>-1</dim>
					<dim>560</dim>
				</port>
			</output>
		</layer>
		<layer id="113" name="Constant_41614_compressed" type="Const" version="opset1">
			<data element_type="f16" shape="1, 1, 560" offset="74466" size="1120" />
			<output>
				<port id="0" precision="FP16">
					<dim>1</dim>
					<dim>1</dim>
					<dim>560</dim>
				</port>
			</output>
		</layer>
		<layer id="114" name="Constant_41614" type="Convert" version="opset1">
			<data destination_type="f32" />
			<rt_info>
				<attribute name="decompression" version="0" />
			</rt_info>
			<input>
				<port id="0" precision="FP16">
					<dim>1</dim>
					<dim>1</dim>
					<dim>560</dim>
				</port>
			</input>
			<output>
				<port id="1" precision="FP32">
					<dim>1</dim>
					<dim>1</dim>
					<dim>560</dim>
				</port>
			</output>
		</layer>
		<layer id="115" name="/encoder/encoders0.0/norm1/Mul" type="Multiply" version="opset1">
			<data auto_broadcast="numpy" />
			<input>
				<port id="0" precision="FP32">
					<dim>-1</dim>
					<dim>-1</dim>
					<dim>560</dim>
				</port>
				<port id="1" precision="FP32">
					<dim>1</dim>
					<dim>1</dim>
					<dim>560</dim>
				</port>
			</input>
			<output>
				<port id="2" precision="FP32" names="/encoder/encoders0.0/norm1/Mul_output_0">
					<dim>-1</dim>
					<dim>-1</dim>
					<dim>560</dim>
				</port>
			</output>
		</layer>
		<layer id="116" name="Constant_41615_compressed" type="Const" version="opset1">
			<data element_type="f16" shape="1, 1, 560" offset="75586" size="1120" />
			<output>
				<port id="0" precision="FP16">
					<dim>1</dim>
					<dim>1</dim>
					<dim>560</dim>
				</port>
			</output>
		</layer>
		<layer id="117" name="Constant_41615" type="Convert" version="opset1">
			<data destination_type="f32" />
			<rt_info>
				<attribute name="decompression" version="0" />
			</rt_info>
			<input>
				<port id="0" precision="FP16">
					<dim>1</dim>
					<dim>1</dim>
					<dim>560</dim>
				</port>
			</input>
			<output>
				<port id="1" precision="FP32">
					<dim>1</dim>
					<dim>1</dim>
					<dim>560</dim>
				</port>
			</output>
		</layer>
		<layer id="118" name="/encoder/encoders0.0/norm1/Add_1" type="Add" version="opset1">
			<data auto_broadcast="numpy" />
			<input>
				<port id="0" precision="FP32">
					<dim>-1</dim>
					<dim>-1</dim>
					<dim>560</dim>
				</port>
				<port id="1" precision="FP32">
					<dim>1</dim>
					<dim>1</dim>
					<dim>560</dim>
				</port>
			</input>
			<output>
				<port id="2" precision="FP32" names="/encoder/encoders0.0/norm1/Add_1_output_0">
					<dim>-1</dim>
					<dim>-1</dim>
					<dim>560</dim>
				</port>
			</output>
		</layer>
		<layer id="119" name="Transpose_36171_compressed" type="Const" version="opset1">
			<data element_type="f16" shape="1536, 560" offset="76706" size="1720320" />
			<output>
				<port id="0" precision="FP16">
					<dim>1536</dim>
					<dim>560</dim>
				</port>
			</output>
		</layer>
		<layer id="120" name="Transpose_36171" type="Convert" version="opset1">
			<data destination_type="f32" />
			<rt_info>
				<attribute name="decompression" version="0" />
			</rt_info>
			<input>
				<port id="0" precision="FP16">
					<dim>1536</dim>
					<dim>560</dim>
				</port>
			</input>
			<output>
				<port id="1" precision="FP32">
					<dim>1536</dim>
					<dim>560</dim>
				</port>
			</output>
		</layer>
		<layer id="121" name="/encoder/encoders0.0/self_attn/linear_q_k_v/MatMul" type="MatMul" version="opset1">
			<data transpose_a="false" transpose_b="true" />
			<input>
				<port id="0" precision="FP32">
					<dim>-1</dim>
					<dim>-1</dim>
					<dim>560</dim>
				</port>
				<port id="1" precision="FP32">
					<dim>1536</dim>
					<dim>560</dim>
				</port>
			</input>
			<output>
				<port id="2" precision="FP32" names="/encoder/encoders0.0/self_attn/linear_q_k_v/MatMul_output_0">
					<dim>-1</dim>
					<dim>-1</dim>
					<dim>1536</dim>
				</port>
			</output>
		</layer>
		<layer id="122" name="/encoder/encoders0.0/self_attn/linear_q_k_v/Add" type="Add" version="opset1">
			<data auto_broadcast="numpy" />
			<input>
				<port id="0" precision="FP32">
					<dim>1</dim>
					<dim>1</dim>
					<dim>1536</dim>
				</port>
				<port id="1" precision="FP32">
					<dim>-1</dim>
					<dim>-1</dim>
					<dim>1536</dim>
				</port>
			</input>
			<output>
				<port id="2" precision="FP32" names="/encoder/encoders0.0/self_attn/linear_q_k_v/Add_output_0">
					<dim>-1</dim>
					<dim>-1</dim>
					<dim>1536</dim>
				</port>
			</output>
		</layer>
		<layer id="123" name="Constant_1180" type="Const" version="opset1">
			<data element_type="i64" shape="" offset="16" size="8" />
			<output>
				<port id="0" precision="I64" />
			</output>
		</layer>
		<layer id="124" name="/encoder/encoders0.0/self_attn/Constant_2" type="Const" version="opset1">
			<data element_type="i64" shape="3" offset="1797026" size="24" />
			<output>
				<port id="0" precision="I64" names="/encoder/encoders0.0/self_attn/Constant_2_output_0">
					<dim>3</dim>
				</port>
			</output>
		</layer>
		<layer id="125" name="/encoder/encoders0.0/self_attn/Split" type="VariadicSplit" version="opset1">
			<input>
				<port id="0" precision="FP32">
					<dim>-1</dim>
					<dim>-1</dim>
					<dim>1536</dim>
				</port>
				<port id="1" precision="I64" />
				<port id="2" precision="I64">
					<dim>3</dim>
				</port>
			</input>
			<output>
				<port id="3" precision="FP32" names="/encoder/encoders0.0/self_attn/Split_output_0">
					<dim>-1</dim>
					<dim>-1</dim>
					<dim>512</dim>
				</port>
				<port id="4" precision="FP32" names="/encoder/encoders0.0/self_attn/Split_output_1">
					<dim>-1</dim>
					<dim>-1</dim>
					<dim>512</dim>
				</port>
				<port id="5" precision="FP32" names="/encoder/encoders0.0/self_attn/Split_output_2">
					<dim>-1</dim>
					<dim>-1</dim>
					<dim>512</dim>
				</port>
			</output>
		</layer>
		<layer id="126" name="Constant_44171" type="Const" version="opset1">
			<data element_type="i64" shape="4" offset="1797050" size="32" />
			<rt_info>
				<attribute name="precise" version="0" />
			</rt_info>
			<output>
				<port id="0" precision="I64">
					<dim>4</dim>
				</port>
			</output>
		</layer>
		<layer id="127" name="/encoder/encoders0.0/self_attn/Reshape" type="Reshape" version="opset1">
			<data special_zero="true" />
			<input>
				<port id="0" precision="FP32">
					<dim>-1</dim>
					<dim>-1</dim>
					<dim>512</dim>
				</port>
				<port id="1" precision="I64">
					<dim>4</dim>
				</port>
			</input>
			<output>
				<port id="2" precision="FP32" names="/encoder/encoders0.0/self_attn/Reshape_output_0">
					<dim>-1</dim>
					<dim>-1</dim>
					<dim>4</dim>
					<dim>128</dim>
				</port>
			</output>
		</layer>
		<layer id="128" name="Constant_1204" type="Const" version="opset1">
			<data element_type="i64" shape="4" offset="1797082" size="32" />
			<output>
				<port id="0" precision="I64">
					<dim>4</dim>
				</port>
			</output>
		</layer>
		<layer id="129" name="/encoder/encoders0.0/self_attn/Transpose" type="Transpose" version="opset1">
			<input>
				<port id="0" precision="FP32">
					<dim>-1</dim>
					<dim>-1</dim>
					<dim>4</dim>
					<dim>128</dim>
				</port>
				<port id="1" precision="I64">
					<dim>4</dim>
				</port>
			</input>
			<output>
				<port id="2" precision="FP32" names="/encoder/encoders0.0/self_attn/Transpose_output_0">
					<dim>-1</dim>
					<dim>4</dim>
					<dim>-1</dim>
					<dim>128</dim>
				</port>
			</output>
		</layer>
		<layer id="130" name="Constant_41617_compressed" type="Const" version="opset1">
			<data element_type="f16" shape="1, 1, 1, 1" offset="1797114" size="2" />
			<output>
				<port id="0" precision="FP16">
					<dim>1</dim>
					<dim>1</dim>
					<dim>1</dim>
					<dim>1</dim>
				</port>
			</output>
		</layer>
		<layer id="131" name="Constant_41617" type="Convert" version="opset1">
			<data destination_type="f32" />
			<rt_info>
				<attribute name="decompression" version="0" />
			</rt_info>
			<input>
				<port id="0" precision="FP16">
					<dim>1</dim>
					<dim>1</dim>
					<dim>1</dim>
					<dim>1</dim>
				</port>
			</input>
			<output>
				<port id="1" precision="FP32">
					<dim>1</dim>
					<dim>1</dim>
					<dim>1</dim>
					<dim>1</dim>
				</port>
			</output>
		</layer>
		<layer id="132" name="/encoder/encoders0.0/self_attn/Mul_2" type="Multiply" version="opset1">
			<data auto_broadcast="numpy" />
			<input>
				<port id="0" precision="FP32">
					<dim>-1</dim>
					<dim>4</dim>
					<dim>-1</dim>
					<dim>128</dim>
				</port>
				<port id="1" precision="FP32">
					<dim>1</dim>
					<dim>1</dim>
					<dim>1</dim>
					<dim>1</dim>
				</port>
			</input>
			<output>
				<port id="2" precision="FP32" names="/encoder/encoders0.0/self_attn/Mul_2_output_0">
					<dim>-1</dim>
					<dim>4</dim>
					<dim>-1</dim>
					<dim>128</dim>
				</port>
			</output>
		</layer>
		<layer id="133" name="Constant_44172" type="Const" version="opset1">
			<data element_type="i64" shape="4" offset="1797050" size="32" />
			<rt_info>
				<attribute name="precise" version="0" />
			</rt_info>
			<output>
				<port id="0" precision="I64">
					<dim>4</dim>
				</port>
			</output>
		</layer>
		<layer id="134" name="/encoder/encoders0.0/self_attn/Reshape_1" type="Reshape" version="opset1">
			<data special_zero="true" />
			<input>
				<port id="0" precision="FP32">
					<dim>-1</dim>
					<dim>-1</dim>
					<dim>512</dim>
				</port>
				<port id="1" precision="I64">
					<dim>4</dim>
				</port>
			</input>
			<output>
				<port id="2" precision="FP32" names="/encoder/encoders0.0/self_attn/Reshape_1_output_0">
					<dim>-1</dim>
					<dim>-1</dim>
					<dim>4</dim>
					<dim>128</dim>
				</port>
			</output>
		</layer>
		<layer id="135" name="Constant_1304" type="Const" version="opset1">
			<data element_type="i64" shape="4" offset="1797116" size="32" />
			<output>
				<port id="0" precision="I64">
					<dim>4</dim>
				</port>
			</output>
		</layer>
		<layer id="136" name="/encoder/encoders0.0/self_attn/Transpose_4" type="Transpose" version="opset1">
			<input>
				<port id="0" precision="FP32">
					<dim>-1</dim>
					<dim>-1</dim>
					<dim>4</dim>
					<dim>128</dim>
				</port>
				<port id="1" precision="I64">
					<dim>4</dim>
				</port>
			</input>
			<output>
				<port id="2" precision="FP32" names="/encoder/encoders0.0/self_attn/Transpose_4_output_0">
					<dim>-1</dim>
					<dim>4</dim>
					<dim>128</dim>
					<dim>-1</dim>
				</port>
			</output>
		</layer>
		<layer id="137" name="/encoder/encoders0.0/self_attn/MatMul" type="MatMul" version="opset1">
			<data transpose_a="false" transpose_b="false" />
			<input>
				<port id="0" precision="FP32">
					<dim>-1</dim>
					<dim>4</dim>
					<dim>-1</dim>
					<dim>128</dim>
				</port>
				<port id="1" precision="FP32">
					<dim>-1</dim>
					<dim>4</dim>
					<dim>128</dim>
					<dim>-1</dim>
				</port>
			</input>
			<output>
				<port id="2" precision="FP32" names="/encoder/encoders0.0/self_attn/MatMul_output_0">
					<dim>-1</dim>
					<dim>4</dim>
					<dim>-1</dim>
					<dim>-1</dim>
				</port>
			</output>
		</layer>
		<layer id="138" name="/encoder/encoders0.0/self_attn/Where" type="Select" version="opset1">
			<data auto_broadcast="numpy" />
			<input>
				<port id="0" precision="BOOL">
					<dim>-1</dim>
					<dim>1</dim>
					<dim>1</dim>
					<dim>-1</dim>
				</port>
				<port id="1" precision="FP32" />
				<port id="2" precision="FP32">
					<dim>-1</dim>
					<dim>4</dim>
					<dim>-1</dim>
					<dim>-1</dim>
				</port>
			</input>
			<output>
				<port id="3" precision="FP32" names="/encoder/encoders0.0/self_attn/Where_output_0">
					<dim>-1</dim>
					<dim>4</dim>
					<dim>-1</dim>
					<dim>-1</dim>
				</port>
			</output>
		</layer>
		<layer id="139" name="/encoder/encoders0.0/self_attn/Softmax" type="SoftMax" version="opset8">
			<data axis="-1" />
			<input>
				<port id="0" precision="FP32">
					<dim>-1</dim>
					<dim>4</dim>
					<dim>-1</dim>
					<dim>-1</dim>
				</port>
			</input>
			<output>
				<port id="1" precision="FP32" names="/encoder/encoders0.0/self_attn/Softmax_output_0">
					<dim>-1</dim>
					<dim>4</dim>
					<dim>-1</dim>
					<dim>-1</dim>
				</port>
			</output>
		</layer>
		<layer id="140" name="/encoder/encoders0.0/self_attn/Where_1" type="Select" version="opset1">
			<data auto_broadcast="numpy" />
			<input>
				<port id="0" precision="BOOL">
					<dim>-1</dim>
					<dim>1</dim>
					<dim>1</dim>
					<dim>-1</dim>
				</port>
				<port id="1" precision="FP32" />
				<port id="2" precision="FP32">
					<dim>-1</dim>
					<dim>4</dim>
					<dim>-1</dim>
					<dim>-1</dim>
				</port>
			</input>
			<output>
				<port id="3" precision="FP32" names="/encoder/encoders0.0/self_attn/Where_1_output_0">
					<dim>-1</dim>
					<dim>4</dim>
					<dim>-1</dim>
					<dim>-1</dim>
				</port>
			</output>
		</layer>
		<layer id="141" name="Constant_44173" type="Const" version="opset1">
			<data element_type="i64" shape="4" offset="1797050" size="32" />
			<rt_info>
				<attribute name="precise" version="0" />
			</rt_info>
			<output>
				<port id="0" precision="I64">
					<dim>4</dim>
				</port>
			</output>
		</layer>
		<layer id="142" name="/encoder/encoders0.0/self_attn/Reshape_2" type="Reshape" version="opset1">
			<data special_zero="true" />
			<input>
				<port id="0" precision="FP32">
					<dim>-1</dim>
					<dim>-1</dim>
					<dim>512</dim>
				</port>
				<port id="1" precision="I64">
					<dim>4</dim>
				</port>
			</input>
			<output>
				<port id="2" precision="FP32" names="/encoder/encoders0.0/self_attn/Reshape_2_output_0">
					<dim>-1</dim>
					<dim>-1</dim>
					<dim>4</dim>
					<dim>128</dim>
				</port>
			</output>
		</layer>
		<layer id="143" name="Constant_1208" type="Const" version="opset1">
			<data element_type="i64" shape="4" offset="1797082" size="32" />
			<output>
				<port id="0" precision="I64">
					<dim>4</dim>
				</port>
			</output>
		</layer>
		<layer id="144" name="/encoder/encoders0.0/self_attn/Transpose_1" type="Transpose" version="opset1">
			<input>
				<port id="0" precision="FP32">
					<dim>-1</dim>
					<dim>-1</dim>
					<dim>4</dim>
					<dim>128</dim>
				</port>
				<port id="1" precision="I64">
					<dim>4</dim>
				</port>
			</input>
			<output>
				<port id="2" precision="FP32" names="/encoder/encoders0.0/self_attn/Transpose_1_output_0">
					<dim>-1</dim>
					<dim>4</dim>
					<dim>-1</dim>
					<dim>128</dim>
				</port>
			</output>
		</layer>
		<layer id="145" name="/encoder/encoders0.0/self_attn/MatMul_1" type="MatMul" version="opset1">
			<data transpose_a="false" transpose_b="false" />
			<input>
				<port id="0" precision="FP32">
					<dim>-1</dim>
					<dim>4</dim>
					<dim>-1</dim>
					<dim>-1</dim>
				</port>
				<port id="1" precision="FP32">
					<dim>-1</dim>
					<dim>4</dim>
					<dim>-1</dim>
					<dim>128</dim>
				</port>
			</input>
			<output>
				<port id="2" precision="FP32" names="/encoder/encoders0.0/self_attn/MatMul_1_output_0">
					<dim>-1</dim>
					<dim>4</dim>
					<dim>-1</dim>
					<dim>128</dim>
				</port>
			</output>
		</layer>
		<layer id="146" name="Constant_1323" type="Const" version="opset1">
			<data element_type="i64" shape="4" offset="1797082" size="32" />
			<output>
				<port id="0" precision="I64">
					<dim>4</dim>
				</port>
			</output>
		</layer>
		<layer id="147" name="/encoder/encoders0.0/self_attn/Transpose_5" type="Transpose" version="opset1">
			<input>
				<port id="0" precision="FP32">
					<dim>-1</dim>
					<dim>4</dim>
					<dim>-1</dim>
					<dim>128</dim>
				</port>
				<port id="1" precision="I64">
					<dim>4</dim>
				</port>
			</input>
			<output>
				<port id="2" precision="FP32" names="/encoder/encoders0.0/self_attn/Transpose_5_output_0">
					<dim>-1</dim>
					<dim>-1</dim>
					<dim>4</dim>
					<dim>128</dim>
				</port>
			</output>
		</layer>
		<layer id="148" name="/encoder/encoders0.0/self_attn/Constant_18" type="Const" version="opset1">
			<data element_type="i64" shape="1" offset="16" size="8" />
			<rt_info>
				<attribute name="precise" version="0" />
			</rt_info>
			<output>
				<port id="0" precision="I64" names="/encoder/encoders0.0/self_attn/Constant_18_output_0">
					<dim>1</dim>
				</port>
			</output>
		</layer>
		<layer id="149" name="/encoder/encoders0.0/self_attn/Constant_19" type="Const" version="opset1">
			<data element_type="i64" shape="1" offset="1797148" size="8" />
			<rt_info>
				<attribute name="precise" version="0" />
			</rt_info>
			<output>
				<port id="0" precision="I64" names="/encoder/encoders0.0/self_attn/Constant_19_output_0">
					<dim>1</dim>
				</port>
			</output>
		</layer>
		<layer id="150" name="/encoder/encoders0.0/self_attn/Concat_4" type="Concat" version="opset1">
			<data axis="0" />
			<input>
				<port id="0" precision="I64">
					<dim>1</dim>
				</port>
				<port id="1" precision="I64">
					<dim>1</dim>
				</port>
				<port id="2" precision="I64">
					<dim>1</dim>
				</port>
			</input>
			<output>
				<port id="3" precision="I64" names="/encoder/encoders.0/self_attn/Concat_4_output_0,/encoder/encoders.1/self_attn/Concat_4_output_0,/encoder/encoders.10/self_attn/Concat_4_output_0,/encoder/encoders.11/self_attn/Concat_4_output_0,/encoder/encoders.12/self_attn/Concat_4_output_0,/encoder/encoders.13/self_attn/Concat_4_output_0,/encoder/encoders.14/self_attn/Concat_4_output_0,/encoder/encoders.15/self_attn/Concat_4_output_0,/encoder/encoders.16/self_attn/Concat_4_output_0,/encoder/encoders.17/self_attn/Concat_4_output_0,/encoder/encoders.18/self_attn/Concat_4_output_0,/encoder/encoders.19/self_attn/Concat_4_output_0,/encoder/encoders.2/self_attn/Concat_4_output_0,/encoder/encoders.20/self_attn/Concat_4_output_0,/encoder/encoders.21/self_attn/Concat_4_output_0,/encoder/encoders.22/self_attn/Concat_4_output_0,/encoder/encoders.23/self_attn/Concat_4_output_0,/encoder/encoders.24/self_attn/Concat_4_output_0,/encoder/encoders.25/self_attn/Concat_4_output_0,/encoder/encoders.26/self_attn/Concat_4_output_0,/encoder/encoders.27/self_attn/Concat_4_output_0,/encoder/encoders.28/self_attn/Concat_4_output_0,/encoder/encoders.29/self_attn/Concat_4_output_0,/encoder/encoders.3/self_attn/Concat_4_output_0,/encoder/encoders.30/self_attn/Concat_4_output_0,/encoder/encoders.31/self_attn/Concat_4_output_0,/encoder/encoders.32/self_attn/Concat_4_output_0,/encoder/encoders.33/self_attn/Concat_4_output_0,/encoder/encoders.34/self_attn/Concat_4_output_0,/encoder/encoders.35/self_attn/Concat_4_output_0,/encoder/encoders.36/self_attn/Concat_4_output_0,/encoder/encoders.37/self_attn/Concat_4_output_0,/encoder/encoders.38/self_attn/Concat_4_output_0,/encoder/encoders.39/self_attn/Concat_4_output_0,/encoder/encoders.4/self_attn/Concat_4_output_0,/encoder/encoders.40/self_attn/Concat_4_output_0,/encoder/encoders.41/self_attn/Concat_4_output_0,/encoder/encoders.42/self_attn/Concat_4_output_0,/encoder/encoders.43/self_attn/Concat_4_output_0,/encoder/encoders.44/self_attn/Concat_4_output_0,/encoder/encoders.45/self_attn/Concat_4_output_0,/encoder/encoders.46/self_attn/Concat_4_output_0,/encoder/encoders.47/self_attn/Concat_4_output_0,/encoder/encoders.48/self_attn/Concat_4_output_0,/encoder/encoders.5/self_attn/Concat_4_output_0,/encoder/encoders.6/self_attn/Concat_4_output_0,/encoder/encoders.7/self_attn/Concat_4_output_0,/encoder/encoders.8/self_attn/Concat_4_output_0,/encoder/encoders.9/self_attn/Concat_4_output_0,/encoder/encoders0.0/self_attn/Concat_4_output_0,/encoder/tp_encoders.0/self_attn/Concat_4_output_0,/encoder/tp_encoders.1/self_attn/Concat_4_output_0,/encoder/tp_encoders.10/self_attn/Concat_4_output_0,/encoder/tp_encoders.11/self_attn/Concat_4_output_0,/encoder/tp_encoders.12/self_attn/Concat_4_output_0,/encoder/tp_encoders.13/self_attn/Concat_4_output_0,/encoder/tp_encoders.14/self_attn/Concat_4_output_0,/encoder/tp_encoders.15/self_attn/Concat_4_output_0,/encoder/tp_encoders.16/self_attn/Concat_4_output_0,/encoder/tp_encoders.17/self_attn/Concat_4_output_0,/encoder/tp_encoders.18/self_attn/Concat_4_output_0,/encoder/tp_encoders.19/self_attn/Concat_4_output_0,/encoder/tp_encoders.2/self_attn/Concat_4_output_0,/encoder/tp_encoders.3/self_attn/Concat_4_output_0,/encoder/tp_encoders.4/self_attn/Concat_4_output_0,/encoder/tp_encoders.5/self_attn/Concat_4_output_0,/encoder/tp_encoders.6/self_attn/Concat_4_output_0,/encoder/tp_encoders.7/self_attn/Concat_4_output_0,/encoder/tp_encoders.8/self_attn/Concat_4_output_0,/encoder/tp_encoders.9/self_attn/Concat_4_output_0">
					<dim>3</dim>
				</port>
			</output>
		</layer>
		<layer id="151" name="/encoder/encoders0.0/self_attn/Reshape_4" type="Reshape" version="opset1">
			<data special_zero="true" />
			<input>
				<port id="0" precision="FP32">
					<dim>-1</dim>
					<dim>-1</dim>
					<dim>4</dim>
					<dim>128</dim>
				</port>
				<port id="1" precision="I64">
					<dim>3</dim>
				</port>
			</input>
			<output>
				<port id="2" precision="FP32" names="/encoder/encoders0.0/self_attn/Reshape_4_output_0">
					<dim>-1</dim>
					<dim>-1</dim>
					<dim>512</dim>
				</port>
			</output>
		</layer>
		<layer id="152" name="Transpose_36180_compressed" type="Const" version="opset1">
			<data element_type="f16" shape="512, 512" offset="1797156" size="524288" />
			<output>
				<port id="0" precision="FP16">
					<dim>512</dim>
					<dim>512</dim>
				</port>
			</output>
		</layer>
		<layer id="153" name="Transpose_36180" type="Convert" version="opset1">
			<data destination_type="f32" />
			<rt_info>
				<attribute name="decompression" version="0" />
			</rt_info>
			<input>
				<port id="0" precision="FP16">
					<dim>512</dim>
					<dim>512</dim>
				</port>
			</input>
			<output>
				<port id="1" precision="FP32">
					<dim>512</dim>
					<dim>512</dim>
				</port>
			</output>
		</layer>
		<layer id="154" name="/encoder/encoders0.0/self_attn/linear_out/MatMul" type="MatMul" version="opset1">
			<data transpose_a="false" transpose_b="true" />
			<input>
				<port id="0" precision="FP32">
					<dim>-1</dim>
					<dim>-1</dim>
					<dim>512</dim>
				</port>
				<port id="1" precision="FP32">
					<dim>512</dim>
					<dim>512</dim>
				</port>
			</input>
			<output>
				<port id="2" precision="FP32" names="/encoder/encoders0.0/self_attn/linear_out/MatMul_output_0">
					<dim>-1</dim>
					<dim>-1</dim>
					<dim>512</dim>
				</port>
			</output>
		</layer>
		<layer id="155" name="/encoder/encoders0.0/self_attn/linear_out/Add" type="Add" version="opset1">
			<data auto_broadcast="numpy" />
			<input>
				<port id="0" precision="FP32">
					<dim>1</dim>
					<dim>1</dim>
					<dim>512</dim>
				</port>
				<port id="1" precision="FP32">
					<dim>-1</dim>
					<dim>-1</dim>
					<dim>512</dim>
				</port>
			</input>
			<output>
				<port id="2" precision="FP32" names="/encoder/encoders0.0/self_attn/linear_out/Add_output_0">
					<dim>-1</dim>
					<dim>-1</dim>
					<dim>512</dim>
				</port>
			</output>
		</layer>
		<layer id="156" name="/encoder/encoders0.0/self_attn/Constant_10" type="Const" version="opset1">
			<data element_type="i64" shape="1" offset="16" size="8" />
			<rt_info>
				<attribute name="precise" version="0" />
			</rt_info>
			<output>
				<port id="0" precision="I64" names="/encoder/encoders0.0/self_attn/Constant_10_output_0">
					<dim>1</dim>
				</port>
			</output>
		</layer>
		<layer id="157" name="/encoder/encoders0.0/self_attn/Constant_11" type="Const" version="opset1">
			<data element_type="i64" shape="1" offset="24" size="8" />
			<rt_info>
				<attribute name="precise" version="0" />
			</rt_info>
			<output>
				<port id="0" precision="I64" names="/encoder/encoders0.0/self_attn/Constant_11_output_0">
					<dim>1</dim>
				</port>
			</output>
		</layer>
		<layer id="158" name="/encoder/encoders0.0/self_attn/Concat_3" type="Concat" version="opset1">
			<data axis="0" />
			<input>
				<port id="0" precision="I64">
					<dim>1</dim>
				</port>
				<port id="1" precision="I64">
					<dim>1</dim>
				</port>
				<port id="2" precision="I64">
					<dim>1</dim>
				</port>
			</input>
			<output>
				<port id="3" precision="I64" names="/encoder/encoders.0/self_attn/Concat_3_output_0,/encoder/encoders.1/self_attn/Concat_3_output_0,/encoder/encoders.10/self_attn/Concat_3_output_0,/encoder/encoders.11/self_attn/Concat_3_output_0,/encoder/encoders.12/self_attn/Concat_3_output_0,/encoder/encoders.13/self_attn/Concat_3_output_0,/encoder/encoders.14/self_attn/Concat_3_output_0,/encoder/encoders.15/self_attn/Concat_3_output_0,/encoder/encoders.16/self_attn/Concat_3_output_0,/encoder/encoders.17/self_attn/Concat_3_output_0,/encoder/encoders.18/self_attn/Concat_3_output_0,/encoder/encoders.19/self_attn/Concat_3_output_0,/encoder/encoders.2/self_attn/Concat_3_output_0,/encoder/encoders.20/self_attn/Concat_3_output_0,/encoder/encoders.21/self_attn/Concat_3_output_0,/encoder/encoders.22/self_attn/Concat_3_output_0,/encoder/encoders.23/self_attn/Concat_3_output_0,/encoder/encoders.24/self_attn/Concat_3_output_0,/encoder/encoders.25/self_attn/Concat_3_output_0,/encoder/encoders.26/self_attn/Concat_3_output_0,/encoder/encoders.27/self_attn/Concat_3_output_0,/encoder/encoders.28/self_attn/Concat_3_output_0,/encoder/encoders.29/self_attn/Concat_3_output_0,/encoder/encoders.3/self_attn/Concat_3_output_0,/encoder/encoders.30/self_attn/Concat_3_output_0,/encoder/encoders.31/self_attn/Concat_3_output_0,/encoder/encoders.32/self_attn/Concat_3_output_0,/encoder/encoders.33/self_attn/Concat_3_output_0,/encoder/encoders.34/self_attn/Concat_3_output_0,/encoder/encoders.35/self_attn/Concat_3_output_0,/encoder/encoders.36/self_attn/Concat_3_output_0,/encoder/encoders.37/self_attn/Concat_3_output_0,/encoder/encoders.38/self_attn/Concat_3_output_0,/encoder/encoders.39/self_attn/Concat_3_output_0,/encoder/encoders.4/self_attn/Concat_3_output_0,/encoder/encoders.40/self_attn/Concat_3_output_0,/encoder/encoders.41/self_attn/Concat_3_output_0,/encoder/encoders.42/self_attn/Concat_3_output_0,/encoder/encoders.43/self_attn/Concat_3_output_0,/encoder/encoders.44/self_attn/Concat_3_output_0,/encoder/encoders.45/self_attn/Concat_3_output_0,/encoder/encoders.46/self_attn/Concat_3_output_0,/encoder/encoders.47/self_attn/Concat_3_output_0,/encoder/encoders.48/self_attn/Concat_3_output_0,/encoder/encoders.5/self_attn/Concat_3_output_0,/encoder/encoders.6/self_attn/Concat_3_output_0,/encoder/encoders.7/self_attn/Concat_3_output_0,/encoder/encoders.8/self_attn/Concat_3_output_0,/encoder/encoders.9/self_attn/Concat_3_output_0,/encoder/encoders0.0/self_attn/Concat_3_output_0,/encoder/tp_encoders.0/self_attn/Concat_3_output_0,/encoder/tp_encoders.1/self_attn/Concat_3_output_0,/encoder/tp_encoders.10/self_attn/Concat_3_output_0,/encoder/tp_encoders.11/self_attn/Concat_3_output_0,/encoder/tp_encoders.12/self_attn/Concat_3_output_0,/encoder/tp_encoders.13/self_attn/Concat_3_output_0,/encoder/tp_encoders.14/self_attn/Concat_3_output_0,/encoder/tp_encoders.15/self_attn/Concat_3_output_0,/encoder/tp_encoders.16/self_attn/Concat_3_output_0,/encoder/tp_encoders.17/self_attn/Concat_3_output_0,/encoder/tp_encoders.18/self_attn/Concat_3_output_0,/encoder/tp_encoders.19/self_attn/Concat_3_output_0,/encoder/tp_encoders.2/self_attn/Concat_3_output_0,/encoder/tp_encoders.3/self_attn/Concat_3_output_0,/encoder/tp_encoders.4/self_attn/Concat_3_output_0,/encoder/tp_encoders.5/self_attn/Concat_3_output_0,/encoder/tp_encoders.6/self_attn/Concat_3_output_0,/encoder/tp_encoders.7/self_attn/Concat_3_output_0,/encoder/tp_encoders.8/self_attn/Concat_3_output_0,/encoder/tp_encoders.9/self_attn/Concat_3_output_0">
					<dim>3</dim>
				</port>
			</output>
		</layer>
		<layer id="159" name="/encoder/encoders0.0/self_attn/Reshape_3" type="Reshape" version="opset1">
			<data special_zero="true" />
			<input>
				<port id="0" precision="FP32">
					<dim>-1</dim>
					<dim>1</dim>
					<dim>-1</dim>
				</port>
				<port id="1" precision="I64">
					<dim>3</dim>
				</port>
			</input>
			<output>
				<port id="2" precision="FP32" names="/encoder/encoders.0/self_attn/Reshape_3_output_0,/encoder/encoders.1/self_attn/Reshape_3_output_0,/encoder/encoders.10/self_attn/Reshape_3_output_0,/encoder/encoders.11/self_attn/Reshape_3_output_0,/encoder/encoders.12/self_attn/Reshape_3_output_0,/encoder/encoders.13/self_attn/Reshape_3_output_0,/encoder/encoders.14/self_attn/Reshape_3_output_0,/encoder/encoders.15/self_attn/Reshape_3_output_0,/encoder/encoders.16/self_attn/Reshape_3_output_0,/encoder/encoders.17/self_attn/Reshape_3_output_0,/encoder/encoders.18/self_attn/Reshape_3_output_0,/encoder/encoders.19/self_attn/Reshape_3_output_0,/encoder/encoders.2/self_attn/Reshape_3_output_0,/encoder/encoders.20/self_attn/Reshape_3_output_0,/encoder/encoders.21/self_attn/Reshape_3_output_0,/encoder/encoders.22/self_attn/Reshape_3_output_0,/encoder/encoders.23/self_attn/Reshape_3_output_0,/encoder/encoders.24/self_attn/Reshape_3_output_0,/encoder/encoders.25/self_attn/Reshape_3_output_0,/encoder/encoders.26/self_attn/Reshape_3_output_0,/encoder/encoders.27/self_attn/Reshape_3_output_0,/encoder/encoders.28/self_attn/Reshape_3_output_0,/encoder/encoders.29/self_attn/Reshape_3_output_0,/encoder/encoders.3/self_attn/Reshape_3_output_0,/encoder/encoders.30/self_attn/Reshape_3_output_0,/encoder/encoders.31/self_attn/Reshape_3_output_0,/encoder/encoders.32/self_attn/Reshape_3_output_0,/encoder/encoders.33/self_attn/Reshape_3_output_0,/encoder/encoders.34/self_attn/Reshape_3_output_0,/encoder/encoders.35/self_attn/Reshape_3_output_0,/encoder/encoders.36/self_attn/Reshape_3_output_0,/encoder/encoders.37/self_attn/Reshape_3_output_0,/encoder/encoders.38/self_attn/Reshape_3_output_0,/encoder/encoders.39/self_attn/Reshape_3_output_0,/encoder/encoders.4/self_attn/Reshape_3_output_0,/encoder/encoders.40/self_attn/Reshape_3_output_0,/encoder/encoders.41/self_attn/Reshape_3_output_0,/encoder/encoders.42/self_attn/Reshape_3_output_0,/encoder/encoders.43/self_attn/Reshape_3_output_0,/encoder/encoders.44/self_attn/Reshape_3_output_0,/encoder/encoders.45/self_attn/Reshape_3_output_0,/encoder/encoders.46/self_attn/Reshape_3_output_0,/encoder/encoders.47/self_attn/Reshape_3_output_0,/encoder/encoders.48/self_attn/Reshape_3_output_0,/encoder/encoders.5/self_attn/Reshape_3_output_0,/encoder/encoders.6/self_attn/Reshape_3_output_0,/encoder/encoders.7/self_attn/Reshape_3_output_0,/encoder/encoders.8/self_attn/Reshape_3_output_0,/encoder/encoders.9/self_attn/Reshape_3_output_0,/encoder/encoders0.0/self_attn/Reshape_3_output_0,/encoder/tp_encoders.0/self_attn/Reshape_3_output_0,/encoder/tp_encoders.1/self_attn/Reshape_3_output_0,/encoder/tp_encoders.10/self_attn/Reshape_3_output_0,/encoder/tp_encoders.11/self_attn/Reshape_3_output_0,/encoder/tp_encoders.12/self_attn/Reshape_3_output_0,/encoder/tp_encoders.13/self_attn/Reshape_3_output_0,/encoder/tp_encoders.14/self_attn/Reshape_3_output_0,/encoder/tp_encoders.15/self_attn/Reshape_3_output_0,/encoder/tp_encoders.16/self_attn/Reshape_3_output_0,/encoder/tp_encoders.17/self_attn/Reshape_3_output_0,/encoder/tp_encoders.18/self_attn/Reshape_3_output_0,/encoder/tp_encoders.19/self_attn/Reshape_3_output_0,/encoder/tp_encoders.2/self_attn/Reshape_3_output_0,/encoder/tp_encoders.3/self_attn/Reshape_3_output_0,/encoder/tp_encoders.4/self_attn/Reshape_3_output_0,/encoder/tp_encoders.5/self_attn/Reshape_3_output_0,/encoder/tp_encoders.6/self_attn/Reshape_3_output_0,/encoder/tp_encoders.7/self_attn/Reshape_3_output_0,/encoder/tp_encoders.8/self_attn/Reshape_3_output_0,/encoder/tp_encoders.9/self_attn/Reshape_3_output_0">
					<dim>-1</dim>
					<dim>-1</dim>
					<dim>1</dim>
				</port>
			</output>
		</layer>
		<layer id="160" name="/encoder/encoders0.0/self_attn/Mul" type="Multiply" version="opset1">
			<data auto_broadcast="numpy" />
			<input>
				<port id="0" precision="FP32">
					<dim>-1</dim>
					<dim>-1</dim>
					<dim>512</dim>
				</port>
				<port id="1" precision="FP32">
					<dim>-1</dim>
					<dim>-1</dim>
					<dim>1</dim>
				</port>
			</input>
			<output>
				<port id="2" precision="FP32" names="/encoder/encoders0.0/self_attn/Mul_output_0">
					<dim>-1</dim>
					<dim>-1</dim>
					<dim>512</dim>
				</port>
			</output>
		</layer>
		<layer id="161" name="Constant_1221" type="Const" version="opset1">
			<data element_type="i64" shape="3" offset="2321444" size="24" />
			<output>
				<port id="0" precision="I64">
					<dim>3</dim>
				</port>
			</output>
		</layer>
		<layer id="162" name="/encoder/encoders0.0/self_attn/Transpose_2" type="Transpose" version="opset1">
			<input>
				<port id="0" precision="FP32">
					<dim>-1</dim>
					<dim>-1</dim>
					<dim>512</dim>
				</port>
				<port id="1" precision="I64">
					<dim>3</dim>
				</port>
			</input>
			<output>
				<port id="2" precision="FP32" names="/encoder/encoders0.0/self_attn/Transpose_2_output_0">
					<dim>-1</dim>
					<dim>512</dim>
					<dim>-1</dim>
				</port>
			</output>
		</layer>
		<layer id="163" name="Reshape_1258_compressed" type="Const" version="opset1">
			<data element_type="f16" shape="512, 1, 1, 11" offset="2321468" size="11264" />
			<output>
				<port id="0" precision="FP16">
					<dim>512</dim>
					<dim>1</dim>
					<dim>1</dim>
					<dim>11</dim>
				</port>
			</output>
		</layer>
		<layer id="164" name="Reshape_1258" type="Convert" version="opset1">
			<data destination_type="f32" />
			<rt_info>
				<attribute name="decompression" version="0" />
			</rt_info>
			<input>
				<port id="0" precision="FP16">
					<dim>512</dim>
					<dim>1</dim>
					<dim>1</dim>
					<dim>11</dim>
				</port>
			</input>
			<output>
				<port id="1" precision="FP32">
					<dim>512</dim>
					<dim>1</dim>
					<dim>1</dim>
					<dim>11</dim>
				</port>
			</output>
		</layer>
		<layer id="165" name="/encoder/encoders0.0/self_attn/fsmn_block/Conv" type="GroupConvolution" version="opset1">
			<data strides="1" pads_begin="5" pads_end="5" dilations="1" auto_pad="explicit" />
			<input>
				<port id="0" precision="FP32">
					<dim>-1</dim>
					<dim>512</dim>
					<dim>-1</dim>
				</port>
				<port id="1" precision="FP32">
					<dim>512</dim>
					<dim>1</dim>
					<dim>1</dim>
					<dim>11</dim>
				</port>
			</input>
			<output>
				<port id="2" precision="FP32" names="/encoder/encoders0.0/self_attn/fsmn_block/Conv_output_0">
					<dim>-1</dim>
					<dim>512</dim>
					<dim>-1</dim>
				</port>
			</output>
		</layer>
		<layer id="166" name="Constant_1298" type="Const" version="opset1">
			<data element_type="i64" shape="3" offset="2321444" size="24" />
			<output>
				<port id="0" precision="I64">
					<dim>3</dim>
				</port>
			</output>
		</layer>
		<layer id="167" name="/encoder/encoders0.0/self_attn/Transpose_3" type="Transpose" version="opset1">
			<input>
				<port id="0" precision="FP32">
					<dim>-1</dim>
					<dim>512</dim>
					<dim>-1</dim>
				</port>
				<port id="1" precision="I64">
					<dim>3</dim>
				</port>
			</input>
			<output>
				<port id="2" precision="FP32" names="/encoder/encoders0.0/self_attn/Transpose_3_output_0">
					<dim>-1</dim>
					<dim>-1</dim>
					<dim>512</dim>
				</port>
			</output>
		</layer>
		<layer id="168" name="/encoder/encoders0.0/self_attn/Add" type="Add" version="opset1">
			<data auto_broadcast="numpy" />
			<input>
				<port id="0" precision="FP32">
					<dim>-1</dim>
					<dim>-1</dim>
					<dim>512</dim>
				</port>
				<port id="1" precision="FP32">
					<dim>-1</dim>
					<dim>-1</dim>
					<dim>512</dim>
				</port>
			</input>
			<output>
				<port id="2" precision="FP32" names="/encoder/encoders0.0/self_attn/Add_output_0">
					<dim>-1</dim>
					<dim>-1</dim>
					<dim>512</dim>
				</port>
			</output>
		</layer>
		<layer id="169" name="/encoder/encoders0.0/self_attn/Mul_1" type="Multiply" version="opset1">
			<data auto_broadcast="numpy" />
			<input>
				<port id="0" precision="FP32">
					<dim>-1</dim>
					<dim>-1</dim>
					<dim>512</dim>
				</port>
				<port id="1" precision="FP32">
					<dim>-1</dim>
					<dim>-1</dim>
					<dim>1</dim>
				</port>
			</input>
			<output>
				<port id="2" precision="FP32" names="/encoder/encoders0.0/self_attn/Mul_1_output_0">
					<dim>-1</dim>
					<dim>-1</dim>
					<dim>512</dim>
				</port>
			</output>
		</layer>
		<layer id="170" name="/encoder/encoders0.0/self_attn/Add_1" type="Add" version="opset1">
			<data auto_broadcast="numpy" />
			<input>
				<port id="0" precision="FP32">
					<dim>-1</dim>
					<dim>-1</dim>
					<dim>512</dim>
				</port>
				<port id="1" precision="FP32">
					<dim>-1</dim>
					<dim>-1</dim>
					<dim>512</dim>
				</port>
			</input>
			<output>
				<port id="2" precision="FP32" names="/encoder/encoders0.0/Mul_output_0,/encoder/encoders0.0/norm2/Cast_output_0,/encoder/encoders0.0/self_attn/Add_1_output_0">
					<dim>-1</dim>
					<dim>-1</dim>
					<dim>512</dim>
				</port>
			</output>
		</layer>
		<layer id="171" name="Constant_41622_compressed" type="Const" version="opset1">
			<data element_type="f16" shape="1, 1, 512" offset="2332732" size="1024" />
			<output>
				<port id="0" precision="FP16">
					<dim>1</dim>
					<dim>1</dim>
					<dim>512</dim>
				</port>
			</output>
		</layer>
		<layer id="172" name="Constant_41622" type="Convert" version="opset1">
			<data destination_type="f32" />
			<rt_info>
				<attribute name="decompression" version="0" />
			</rt_info>
			<input>
				<port id="0" precision="FP16">
					<dim>1</dim>
					<dim>1</dim>
					<dim>512</dim>
				</port>
			</input>
			<output>
				<port id="1" precision="FP32">
					<dim>1</dim>
					<dim>1</dim>
					<dim>512</dim>
				</port>
			</output>
		</layer>
		<layer id="173" name="Constant_41621_compressed" type="Const" version="opset1">
			<data element_type="f16" shape="1, 1, 2048" offset="2333756" size="4096" />
			<output>
				<port id="0" precision="FP16">
					<dim>1</dim>
					<dim>1</dim>
					<dim>2048</dim>
				</port>
			</output>
		</layer>
		<layer id="174" name="Constant_41621" type="Convert" version="opset1">
			<data destination_type="f32" />
			<rt_info>
				<attribute name="decompression" version="0" />
			</rt_info>
			<input>
				<port id="0" precision="FP16">
					<dim>1</dim>
					<dim>1</dim>
					<dim>2048</dim>
				</port>
			</input>
			<output>
				<port id="1" precision="FP32">
					<dim>1</dim>
					<dim>1</dim>
					<dim>2048</dim>
				</port>
			</output>
		</layer>
		<layer id="175" name="Constant_1337" type="Const" version="opset1">
			<data element_type="i64" shape="1" offset="16" size="8" />
			<output>
				<port id="0" precision="I64">
					<dim>1</dim>
				</port>
			</output>
		</layer>
		<layer id="176" name="/encoder/encoders0.0/norm2/Div" type="MVN" version="opset6">
			<data eps="9.9999997473787516e-06" normalize_variance="true" eps_mode="INSIDE_SQRT" />
			<input>
				<port id="0" precision="FP32">
					<dim>-1</dim>
					<dim>-1</dim>
					<dim>512</dim>
				</port>
				<port id="1" precision="I64">
					<dim>1</dim>
				</port>
			</input>
			<output>
				<port id="2" precision="FP32" names="/encoder/encoders0.0/norm2/Div_output_0">
					<dim>-1</dim>
					<dim>-1</dim>
					<dim>512</dim>
				</port>
			</output>
		</layer>
		<layer id="177" name="Constant_41619_compressed" type="Const" version="opset1">
			<data element_type="f16" shape="1, 1, 512" offset="2337852" size="1024" />
			<output>
				<port id="0" precision="FP16">
					<dim>1</dim>
					<dim>1</dim>
					<dim>512</dim>
				</port>
			</output>
		</layer>
		<layer id="178" name="Constant_41619" type="Convert" version="opset1">
			<data destination_type="f32" />
			<rt_info>
				<attribute name="decompression" version="0" />
			</rt_info>
			<input>
				<port id="0" precision="FP16">
					<dim>1</dim>
					<dim>1</dim>
					<dim>512</dim>
				</port>
			</input>
			<output>
				<port id="1" precision="FP32">
					<dim>1</dim>
					<dim>1</dim>
					<dim>512</dim>
				</port>
			</output>
		</layer>
		<layer id="179" name="/encoder/encoders0.0/norm2/Mul" type="Multiply" version="opset1">
			<data auto_broadcast="numpy" />
			<input>
				<port id="0" precision="FP32">
					<dim>-1</dim>
					<dim>-1</dim>
					<dim>512</dim>
				</port>
				<port id="1" precision="FP32">
					<dim>1</dim>
					<dim>1</dim>
					<dim>512</dim>
				</port>
			</input>
			<output>
				<port id="2" precision="FP32" names="/encoder/encoders0.0/norm2/Mul_output_0">
					<dim>-1</dim>
					<dim>-1</dim>
					<dim>512</dim>
				</port>
			</output>
		</layer>
		<layer id="180" name="Constant_41620_compressed" type="Const" version="opset1">
			<data element_type="f16" shape="1, 1, 512" offset="2338876" size="1024" />
			<output>
				<port id="0" precision="FP16">
					<dim>1</dim>
					<dim>1</dim>
					<dim>512</dim>
				</port>
			</output>
		</layer>
		<layer id="181" name="Constant_41620" type="Convert" version="opset1">
			<data destination_type="f32" />
			<rt_info>
				<attribute name="decompression" version="0" />
			</rt_info>
			<input>
				<port id="0" precision="FP16">
					<dim>1</dim>
					<dim>1</dim>
					<dim>512</dim>
				</port>
			</input>
			<output>
				<port id="1" precision="FP32">
					<dim>1</dim>
					<dim>1</dim>
					<dim>512</dim>
				</port>
			</output>
		</layer>
		<layer id="182" name="/encoder/encoders0.0/norm2/Add_1" type="Add" version="opset1">
			<data auto_broadcast="numpy" />
			<input>
				<port id="0" precision="FP32">
					<dim>-1</dim>
					<dim>-1</dim>
					<dim>512</dim>
				</port>
				<port id="1" precision="FP32">
					<dim>1</dim>
					<dim>1</dim>
					<dim>512</dim>
				</port>
			</input>
			<output>
				<port id="2" precision="FP32" names="/encoder/encoders0.0/norm2/Add_1_output_0">
					<dim>-1</dim>
					<dim>-1</dim>
					<dim>512</dim>
				</port>
			</output>
		</layer>
		<layer id="183" name="Transpose_36205_compressed" type="Const" version="opset1">
			<data element_type="f16" shape="2048, 512" offset="2339900" size="2097152" />
			<output>
				<port id="0" precision="FP16">
					<dim>2048</dim>
					<dim>512</dim>
				</port>
			</output>
		</layer>
		<layer id="184" name="Transpose_36205" type="Convert" version="opset1">
			<data destination_type="f32" />
			<rt_info>
				<attribute name="decompression" version="0" />
			</rt_info>
			<input>
				<port id="0" precision="FP16">
					<dim>2048</dim>
					<dim>512</dim>
				</port>
			</input>
			<output>
				<port id="1" precision="FP32">
					<dim>2048</dim>
					<dim>512</dim>
				</port>
			</output>
		</layer>
		<layer id="185" name="/encoder/encoders0.0/feed_forward/w_1/MatMul" type="MatMul" version="opset1">
			<data transpose_a="false" transpose_b="true" />
			<input>
				<port id="0" precision="FP32">
					<dim>-1</dim>
					<dim>-1</dim>
					<dim>512</dim>
				</port>
				<port id="1" precision="FP32">
					<dim>2048</dim>
					<dim>512</dim>
				</port>
			</input>
			<output>
				<port id="2" precision="FP32" names="/encoder/encoders0.0/feed_forward/w_1/MatMul_output_0">
					<dim>-1</dim>
					<dim>-1</dim>
					<dim>2048</dim>
				</port>
			</output>
		</layer>
		<layer id="186" name="/encoder/encoders0.0/feed_forward/w_1/Add" type="Add" version="opset1">
			<data auto_broadcast="numpy" />
			<input>
				<port id="0" precision="FP32">
					<dim>1</dim>
					<dim>1</dim>
					<dim>2048</dim>
				</port>
				<port id="1" precision="FP32">
					<dim>-1</dim>
					<dim>-1</dim>
					<dim>2048</dim>
				</port>
			</input>
			<output>
				<port id="2" precision="FP32" names="/encoder/encoders0.0/feed_forward/w_1/Add_output_0">
					<dim>-1</dim>
					<dim>-1</dim>
					<dim>2048</dim>
				</port>
			</output>
		</layer>
		<layer id="187" name="/encoder/encoders0.0/feed_forward/activation/Relu" type="ReLU" version="opset1">
			<input>
				<port id="0" precision="FP32">
					<dim>-1</dim>
					<dim>-1</dim>
					<dim>2048</dim>
				</port>
			</input>
			<output>
				<port id="1" precision="FP32" names="/encoder/encoders0.0/feed_forward/activation/Relu_output_0">
					<dim>-1</dim>
					<dim>-1</dim>
					<dim>2048</dim>
				</port>
			</output>
		</layer>
		<layer id="188" name="Transpose_36212_compressed" type="Const" version="opset1">
			<data element_type="f16" shape="512, 2048" offset="4437052" size="2097152" />
			<output>
				<port id="0" precision="FP16">
					<dim>512</dim>
					<dim>2048</dim>
				</port>
			</output>
		</layer>
		<layer id="189" name="Transpose_36212" type="Convert" version="opset1">
			<data destination_type="f32" />
			<rt_info>
				<attribute name="decompression" version="0" />
			</rt_info>
			<input>
				<port id="0" precision="FP16">
					<dim>512</dim>
					<dim>2048</dim>
				</port>
			</input>
			<output>
				<port id="1" precision="FP32">
					<dim>512</dim>
					<dim>2048</dim>
				</port>
			</output>
		</layer>
		<layer id="190" name="/encoder/encoders0.0/feed_forward/w_2/MatMul" type="MatMul" version="opset1">
			<data transpose_a="false" transpose_b="true" />
			<input>
				<port id="0" precision="FP32">
					<dim>-1</dim>
					<dim>-1</dim>
					<dim>2048</dim>
				</port>
				<port id="1" precision="FP32">
					<dim>512</dim>
					<dim>2048</dim>
				</port>
			</input>
			<output>
				<port id="2" precision="FP32" names="/encoder/encoders0.0/feed_forward/w_2/MatMul_output_0">
					<dim>-1</dim>
					<dim>-1</dim>
					<dim>512</dim>
				</port>
			</output>
		</layer>
		<layer id="191" name="/encoder/encoders0.0/feed_forward/w_2/Add" type="Add" version="opset1">
			<data auto_broadcast="numpy" />
			<input>
				<port id="0" precision="FP32">
					<dim>1</dim>
					<dim>1</dim>
					<dim>512</dim>
				</port>
				<port id="1" precision="FP32">
					<dim>-1</dim>
					<dim>-1</dim>
					<dim>512</dim>
				</port>
			</input>
			<output>
				<port id="2" precision="FP32" names="/encoder/encoders0.0/Mul_1_output_0,/encoder/encoders0.0/feed_forward/w_2/Add_output_0">
					<dim>-1</dim>
					<dim>-1</dim>
					<dim>512</dim>
				</port>
			</output>
		</layer>
		<layer id="192" name="/encoder/encoders0.0/Add" type="Add" version="opset1">
			<data auto_broadcast="numpy" />
			<input>
				<port id="0" precision="FP32">
					<dim>-1</dim>
					<dim>-1</dim>
					<dim>512</dim>
				</port>
				<port id="1" precision="FP32">
					<dim>-1</dim>
					<dim>-1</dim>
					<dim>512</dim>
				</port>
			</input>
			<output>
				<port id="2" precision="FP32" names="/encoder/encoders.0/norm1/Cast_output_0,/encoder/encoders0.0/Add_output_0">
					<dim>-1</dim>
					<dim>-1</dim>
					<dim>512</dim>
				</port>
			</output>
		</layer>
		<layer id="193" name="Constant_41627_compressed" type="Const" version="opset1">
			<data element_type="f16" shape="1, 1, 512" offset="6534204" size="1024" />
			<output>
				<port id="0" precision="FP16">
					<dim>1</dim>
					<dim>1</dim>
					<dim>512</dim>
				</port>
			</output>
		</layer>
		<layer id="194" name="Constant_41627" type="Convert" version="opset1">
			<data destination_type="f32" />
			<rt_info>
				<attribute name="decompression" version="0" />
			</rt_info>
			<input>
				<port id="0" precision="FP16">
					<dim>1</dim>
					<dim>1</dim>
					<dim>512</dim>
				</port>
			</input>
			<output>
				<port id="1" precision="FP32">
					<dim>1</dim>
					<dim>1</dim>
					<dim>512</dim>
				</port>
			</output>
		</layer>
		<layer id="195" name="/encoder/encoders.0/self_attn/Constant_15_compressed" type="Const" version="opset1">
			<data element_type="f16" shape="" offset="0" size="2" />
			<output>
				<port id="0" precision="FP16" names="/encoder/encoders.0/self_attn/Constant_15_output_0" />
			</output>
		</layer>
		<layer id="196" name="/encoder/encoders.0/self_attn/Constant_15" type="Convert" version="opset1">
			<data destination_type="f32" />
			<rt_info>
				<attribute name="decompression" version="0" />
			</rt_info>
			<input>
				<port id="0" precision="FP16" />
			</input>
			<output>
				<port id="1" precision="FP32" />
			</output>
		</layer>
		<layer id="197" name="/encoder/encoders.0/self_attn/Constant_14" type="Const" version="opset1">
			<data element_type="f32" shape="" offset="51166" size="4" />
			<output>
				<port id="0" precision="FP32" names="/encoder/encoders.0/self_attn/Constant_14_output_0" />
			</output>
		</layer>
		<layer id="198" name="Constant_41625_compressed" type="Const" version="opset1">
			<data element_type="f16" shape="1, 1, 1536" offset="6535228" size="3072" />
			<output>
				<port id="0" precision="FP16">
					<dim>1</dim>
					<dim>1</dim>
					<dim>1536</dim>
				</port>
			</output>
		</layer>
		<layer id="199" name="Constant_41625" type="Convert" version="opset1">
			<data destination_type="f32" />
			<rt_info>
				<attribute name="decompression" version="0" />
			</rt_info>
			<input>
				<port id="0" precision="FP16">
					<dim>1</dim>
					<dim>1</dim>
					<dim>1536</dim>
				</port>
			</input>
			<output>
				<port id="1" precision="FP32">
					<dim>1</dim>
					<dim>1</dim>
					<dim>1536</dim>
				</port>
			</output>
		</layer>
		<layer id="200" name="Constant_1359" type="Const" version="opset1">
			<data element_type="i64" shape="1" offset="16" size="8" />
			<output>
				<port id="0" precision="I64">
					<dim>1</dim>
				</port>
			</output>
		</layer>
		<layer id="201" name="/encoder/encoders.0/norm1/Div" type="MVN" version="opset6">
			<data eps="9.9999997473787516e-06" normalize_variance="true" eps_mode="INSIDE_SQRT" />
			<input>
				<port id="0" precision="FP32">
					<dim>-1</dim>
					<dim>-1</dim>
					<dim>512</dim>
				</port>
				<port id="1" precision="I64">
					<dim>1</dim>
				</port>
			</input>
			<output>
				<port id="2" precision="FP32" names="/encoder/encoders.0/norm1/Div_output_0">
					<dim>-1</dim>
					<dim>-1</dim>
					<dim>512</dim>
				</port>
			</output>
		</layer>
		<layer id="202" name="Constant_41623_compressed" type="Const" version="opset1">
			<data element_type="f16" shape="1, 1, 512" offset="6538300" size="1024" />
			<output>
				<port id="0" precision="FP16">
					<dim>1</dim>
					<dim>1</dim>
					<dim>512</dim>
				</port>
			</output>
		</layer>
		<layer id="203" name="Constant_41623" type="Convert" version="opset1">
			<data destination_type="f32" />
			<rt_info>
				<attribute name="decompression" version="0" />
			</rt_info>
			<input>
				<port id="0" precision="FP16">
					<dim>1</dim>
					<dim>1</dim>
					<dim>512</dim>
				</port>
			</input>
			<output>
				<port id="1" precision="FP32">
					<dim>1</dim>
					<dim>1</dim>
					<dim>512</dim>
				</port>
			</output>
		</layer>
		<layer id="204" name="/encoder/encoders.0/norm1/Mul" type="Multiply" version="opset1">
			<data auto_broadcast="numpy" />
			<input>
				<port id="0" precision="FP32">
					<dim>-1</dim>
					<dim>-1</dim>
					<dim>512</dim>
				</port>
				<port id="1" precision="FP32">
					<dim>1</dim>
					<dim>1</dim>
					<dim>512</dim>
				</port>
			</input>
			<output>
				<port id="2" precision="FP32" names="/encoder/encoders.0/norm1/Mul_output_0">
					<dim>-1</dim>
					<dim>-1</dim>
					<dim>512</dim>
				</port>
			</output>
		</layer>
		<layer id="205" name="Constant_41624_compressed" type="Const" version="opset1">
			<data element_type="f16" shape="1, 1, 512" offset="6539324" size="1024" />
			<output>
				<port id="0" precision="FP16">
					<dim>1</dim>
					<dim>1</dim>
					<dim>512</dim>
				</port>
			</output>
		</layer>
		<layer id="206" name="Constant_41624" type="Convert" version="opset1">
			<data destination_type="f32" />
			<rt_info>
				<attribute name="decompression" version="0" />
			</rt_info>
			<input>
				<port id="0" precision="FP16">
					<dim>1</dim>
					<dim>1</dim>
					<dim>512</dim>
				</port>
			</input>
			<output>
				<port id="1" precision="FP32">
					<dim>1</dim>
					<dim>1</dim>
					<dim>512</dim>
				</port>
			</output>
		</layer>
		<layer id="207" name="/encoder/encoders.0/norm1/Add_1" type="Add" version="opset1">
			<data auto_broadcast="numpy" />
			<input>
				<port id="0" precision="FP32">
					<dim>-1</dim>
					<dim>-1</dim>
					<dim>512</dim>
				</port>
				<port id="1" precision="FP32">
					<dim>1</dim>
					<dim>1</dim>
					<dim>512</dim>
				</port>
			</input>
			<output>
				<port id="2" precision="FP32" names="/encoder/encoders.0/norm1/Add_1_output_0">
					<dim>-1</dim>
					<dim>-1</dim>
					<dim>512</dim>
				</port>
			</output>
		</layer>
		<layer id="208" name="Transpose_36230_compressed" type="Const" version="opset1">
			<data element_type="f16" shape="1536, 512" offset="6540348" size="1572864" />
			<output>
				<port id="0" precision="FP16">
					<dim>1536</dim>
					<dim>512</dim>
				</port>
			</output>
		</layer>
		<layer id="209" name="Transpose_36230" type="Convert" version="opset1">
			<data destination_type="f32" />
			<rt_info>
				<attribute name="decompression" version="0" />
			</rt_info>
			<input>
				<port id="0" precision="FP16">
					<dim>1536</dim>
					<dim>512</dim>
				</port>
			</input>
			<output>
				<port id="1" precision="FP32">
					<dim>1536</dim>
					<dim>512</dim>
				</port>
			</output>
		</layer>
		<layer id="210" name="/encoder/encoders.0/self_attn/linear_q_k_v/MatMul" type="MatMul" version="opset1">
			<data transpose_a="false" transpose_b="true" />
			<input>
				<port id="0" precision="FP32">
					<dim>-1</dim>
					<dim>-1</dim>
					<dim>512</dim>
				</port>
				<port id="1" precision="FP32">
					<dim>1536</dim>
					<dim>512</dim>
				</port>
			</input>
			<output>
				<port id="2" precision="FP32" names="/encoder/encoders.0/self_attn/linear_q_k_v/MatMul_output_0">
					<dim>-1</dim>
					<dim>-1</dim>
					<dim>1536</dim>
				</port>
			</output>
		</layer>
		<layer id="211" name="/encoder/encoders.0/self_attn/linear_q_k_v/Add" type="Add" version="opset1">
			<data auto_broadcast="numpy" />
			<input>
				<port id="0" precision="FP32">
					<dim>1</dim>
					<dim>1</dim>
					<dim>1536</dim>
				</port>
				<port id="1" precision="FP32">
					<dim>-1</dim>
					<dim>-1</dim>
					<dim>1536</dim>
				</port>
			</input>
			<output>
				<port id="2" precision="FP32" names="/encoder/encoders.0/self_attn/linear_q_k_v/Add_output_0">
					<dim>-1</dim>
					<dim>-1</dim>
					<dim>1536</dim>
				</port>
			</output>
		</layer>
		<layer id="212" name="Constant_1383" type="Const" version="opset1">
			<data element_type="i64" shape="" offset="16" size="8" />
			<output>
				<port id="0" precision="I64" />
			</output>
		</layer>
		<layer id="213" name="/encoder/encoders.0/self_attn/Constant_2" type="Const" version="opset1">
			<data element_type="i64" shape="3" offset="1797026" size="24" />
			<output>
				<port id="0" precision="I64" names="/encoder/encoders.0/self_attn/Constant_2_output_0">
					<dim>3</dim>
				</port>
			</output>
		</layer>
		<layer id="214" name="/encoder/encoders.0/self_attn/Split" type="VariadicSplit" version="opset1">
			<input>
				<port id="0" precision="FP32">
					<dim>-1</dim>
					<dim>-1</dim>
					<dim>1536</dim>
				</port>
				<port id="1" precision="I64" />
				<port id="2" precision="I64">
					<dim>3</dim>
				</port>
			</input>
			<output>
				<port id="3" precision="FP32" names="/encoder/encoders.0/self_attn/Split_output_0">
					<dim>-1</dim>
					<dim>-1</dim>
					<dim>512</dim>
				</port>
				<port id="4" precision="FP32" names="/encoder/encoders.0/self_attn/Split_output_1">
					<dim>-1</dim>
					<dim>-1</dim>
					<dim>512</dim>
				</port>
				<port id="5" precision="FP32" names="/encoder/encoders.0/self_attn/Split_output_2">
					<dim>-1</dim>
					<dim>-1</dim>
					<dim>512</dim>
				</port>
			</output>
		</layer>
		<layer id="215" name="Constant_44174" type="Const" version="opset1">
			<data element_type="i64" shape="4" offset="1797050" size="32" />
			<rt_info>
				<attribute name="precise" version="0" />
			</rt_info>
			<output>
				<port id="0" precision="I64">
					<dim>4</dim>
				</port>
			</output>
		</layer>
		<layer id="216" name="/encoder/encoders.0/self_attn/Reshape" type="Reshape" version="opset1">
			<data special_zero="true" />
			<input>
				<port id="0" precision="FP32">
					<dim>-1</dim>
					<dim>-1</dim>
					<dim>512</dim>
				</port>
				<port id="1" precision="I64">
					<dim>4</dim>
				</port>
			</input>
			<output>
				<port id="2" precision="FP32" names="/encoder/encoders.0/self_attn/Reshape_output_0">
					<dim>-1</dim>
					<dim>-1</dim>
					<dim>4</dim>
					<dim>128</dim>
				</port>
			</output>
		</layer>
		<layer id="217" name="Constant_1407" type="Const" version="opset1">
			<data element_type="i64" shape="4" offset="1797082" size="32" />
			<output>
				<port id="0" precision="I64">
					<dim>4</dim>
				</port>
			</output>
		</layer>
		<layer id="218" name="/encoder/encoders.0/self_attn/Transpose" type="Transpose" version="opset1">
			<input>
				<port id="0" precision="FP32">
					<dim>-1</dim>
					<dim>-1</dim>
					<dim>4</dim>
					<dim>128</dim>
				</port>
				<port id="1" precision="I64">
					<dim>4</dim>
				</port>
			</input>
			<output>
				<port id="2" precision="FP32" names="/encoder/encoders.0/self_attn/Transpose_output_0">
					<dim>-1</dim>
					<dim>4</dim>
					<dim>-1</dim>
					<dim>128</dim>
				</port>
			</output>
		</layer>
		<layer id="219" name="Constant_41626_compressed" type="Const" version="opset1">
			<data element_type="f16" shape="1, 1, 1, 1" offset="1797114" size="2" />
			<output>
				<port id="0" precision="FP16">
					<dim>1</dim>
					<dim>1</dim>
					<dim>1</dim>
					<dim>1</dim>
				</port>
			</output>
		</layer>
		<layer id="220" name="Constant_41626" type="Convert" version="opset1">
			<data destination_type="f32" />
			<rt_info>
				<attribute name="decompression" version="0" />
			</rt_info>
			<input>
				<port id="0" precision="FP16">
					<dim>1</dim>
					<dim>1</dim>
					<dim>1</dim>
					<dim>1</dim>
				</port>
			</input>
			<output>
				<port id="1" precision="FP32">
					<dim>1</dim>
					<dim>1</dim>
					<dim>1</dim>
					<dim>1</dim>
				</port>
			</output>
		</layer>
		<layer id="221" name="/encoder/encoders.0/self_attn/Mul_2" type="Multiply" version="opset1">
			<data auto_broadcast="numpy" />
			<input>
				<port id="0" precision="FP32">
					<dim>-1</dim>
					<dim>4</dim>
					<dim>-1</dim>
					<dim>128</dim>
				</port>
				<port id="1" precision="FP32">
					<dim>1</dim>
					<dim>1</dim>
					<dim>1</dim>
					<dim>1</dim>
				</port>
			</input>
			<output>
				<port id="2" precision="FP32" names="/encoder/encoders.0/self_attn/Mul_2_output_0">
					<dim>-1</dim>
					<dim>4</dim>
					<dim>-1</dim>
					<dim>128</dim>
				</port>
			</output>
		</layer>
		<layer id="222" name="Constant_44175" type="Const" version="opset1">
			<data element_type="i64" shape="4" offset="1797050" size="32" />
			<rt_info>
				<attribute name="precise" version="0" />
			</rt_info>
			<output>
				<port id="0" precision="I64">
					<dim>4</dim>
				</port>
			</output>
		</layer>
		<layer id="223" name="/encoder/encoders.0/self_attn/Reshape_1" type="Reshape" version="opset1">
			<data special_zero="true" />
			<input>
				<port id="0" precision="FP32">
					<dim>-1</dim>
					<dim>-1</dim>
					<dim>512</dim>
				</port>
				<port id="1" precision="I64">
					<dim>4</dim>
				</port>
			</input>
			<output>
				<port id="2" precision="FP32" names="/encoder/encoders.0/self_attn/Reshape_1_output_0">
					<dim>-1</dim>
					<dim>-1</dim>
					<dim>4</dim>
					<dim>128</dim>
				</port>
			</output>
		</layer>
		<layer id="224" name="Constant_1506" type="Const" version="opset1">
			<data element_type="i64" shape="4" offset="1797116" size="32" />
			<output>
				<port id="0" precision="I64">
					<dim>4</dim>
				</port>
			</output>
		</layer>
		<layer id="225" name="/encoder/encoders.0/self_attn/Transpose_4" type="Transpose" version="opset1">
			<input>
				<port id="0" precision="FP32">
					<dim>-1</dim>
					<dim>-1</dim>
					<dim>4</dim>
					<dim>128</dim>
				</port>
				<port id="1" precision="I64">
					<dim>4</dim>
				</port>
			</input>
			<output>
				<port id="2" precision="FP32" names="/encoder/encoders.0/self_attn/Transpose_4_output_0">
					<dim>-1</dim>
					<dim>4</dim>
					<dim>128</dim>
					<dim>-1</dim>
				</port>
			</output>
		</layer>
		<layer id="226" name="/encoder/encoders.0/self_attn/MatMul" type="MatMul" version="opset1">
			<data transpose_a="false" transpose_b="false" />
			<input>
				<port id="0" precision="FP32">
					<dim>-1</dim>
					<dim>4</dim>
					<dim>-1</dim>
					<dim>128</dim>
				</port>
				<port id="1" precision="FP32">
					<dim>-1</dim>
					<dim>4</dim>
					<dim>128</dim>
					<dim>-1</dim>
				</port>
			</input>
			<output>
				<port id="2" precision="FP32" names="/encoder/encoders.0/self_attn/MatMul_output_0">
					<dim>-1</dim>
					<dim>4</dim>
					<dim>-1</dim>
					<dim>-1</dim>
				</port>
			</output>
		</layer>
		<layer id="227" name="/encoder/encoders.0/self_attn/Where" type="Select" version="opset1">
			<data auto_broadcast="numpy" />
			<input>
				<port id="0" precision="BOOL">
					<dim>-1</dim>
					<dim>1</dim>
					<dim>1</dim>
					<dim>-1</dim>
				</port>
				<port id="1" precision="FP32" />
				<port id="2" precision="FP32">
					<dim>-1</dim>
					<dim>4</dim>
					<dim>-1</dim>
					<dim>-1</dim>
				</port>
			</input>
			<output>
				<port id="3" precision="FP32" names="/encoder/encoders.0/self_attn/Where_output_0">
					<dim>-1</dim>
					<dim>4</dim>
					<dim>-1</dim>
					<dim>-1</dim>
				</port>
			</output>
		</layer>
		<layer id="228" name="/encoder/encoders.0/self_attn/Softmax" type="SoftMax" version="opset8">
			<data axis="-1" />
			<input>
				<port id="0" precision="FP32">
					<dim>-1</dim>
					<dim>4</dim>
					<dim>-1</dim>
					<dim>-1</dim>
				</port>
			</input>
			<output>
				<port id="1" precision="FP32" names="/encoder/encoders.0/self_attn/Softmax_output_0">
					<dim>-1</dim>
					<dim>4</dim>
					<dim>-1</dim>
					<dim>-1</dim>
				</port>
			</output>
		</layer>
		<layer id="229" name="/encoder/encoders.0/self_attn/Where_1" type="Select" version="opset1">
			<data auto_broadcast="numpy" />
			<input>
				<port id="0" precision="BOOL">
					<dim>-1</dim>
					<dim>1</dim>
					<dim>1</dim>
					<dim>-1</dim>
				</port>
				<port id="1" precision="FP32" />
				<port id="2" precision="FP32">
					<dim>-1</dim>
					<dim>4</dim>
					<dim>-1</dim>
					<dim>-1</dim>
				</port>
			</input>
			<output>
				<port id="3" precision="FP32" names="/encoder/encoders.0/self_attn/Where_1_output_0">
					<dim>-1</dim>
					<dim>4</dim>
					<dim>-1</dim>
					<dim>-1</dim>
				</port>
			</output>
		</layer>
		<layer id="230" name="Constant_44176" type="Const" version="opset1">
			<data element_type="i64" shape="4" offset="1797050" size="32" />
			<rt_info>
				<attribute name="precise" version="0" />
			</rt_info>
			<output>
				<port id="0" precision="I64">
					<dim>4</dim>
				</port>
			</output>
		</layer>
		<layer id="231" name="/encoder/encoders.0/self_attn/Reshape_2" type="Reshape" version="opset1">
			<data special_zero="true" />
			<input>
				<port id="0" precision="FP32">
					<dim>-1</dim>
					<dim>-1</dim>
					<dim>512</dim>
				</port>
				<port id="1" precision="I64">
					<dim>4</dim>
				</port>
			</input>
			<output>
				<port id="2" precision="FP32" names="/encoder/encoders.0/self_attn/Reshape_2_output_0">
					<dim>-1</dim>
					<dim>-1</dim>
					<dim>4</dim>
					<dim>128</dim>
				</port>
			</output>
		</layer>
		<layer id="232" name="Constant_1411" type="Const" version="opset1">
			<data element_type="i64" shape="4" offset="1797082" size="32" />
			<output>
				<port id="0" precision="I64">
					<dim>4</dim>
				</port>
			</output>
		</layer>
		<layer id="233" name="/encoder/encoders.0/self_attn/Transpose_1" type="Transpose" version="opset1">
			<input>
				<port id="0" precision="FP32">
					<dim>-1</dim>
					<dim>-1</dim>
					<dim>4</dim>
					<dim>128</dim>
				</port>
				<port id="1" precision="I64">
					<dim>4</dim>
				</port>
			</input>
			<output>
				<port id="2" precision="FP32" names="/encoder/encoders.0/self_attn/Transpose_1_output_0">
					<dim>-1</dim>
					<dim>4</dim>
					<dim>-1</dim>
					<dim>128</dim>
				</port>
			</output>
		</layer>
		<layer id="234" name="/encoder/encoders.0/self_attn/MatMul_1" type="MatMul" version="opset1">
			<data transpose_a="false" transpose_b="false" />
			<input>
				<port id="0" precision="FP32">
					<dim>-1</dim>
					<dim>4</dim>
					<dim>-1</dim>
					<dim>-1</dim>
				</port>
				<port id="1" precision="FP32">
					<dim>-1</dim>
					<dim>4</dim>
					<dim>-1</dim>
					<dim>128</dim>
				</port>
			</input>
			<output>
				<port id="2" precision="FP32" names="/encoder/encoders.0/self_attn/MatMul_1_output_0">
					<dim>-1</dim>
					<dim>4</dim>
					<dim>-1</dim>
					<dim>128</dim>
				</port>
			</output>
		</layer>
		<layer id="235" name="Constant_1521" type="Const" version="opset1">
			<data element_type="i64" shape="4" offset="1797082" size="32" />
			<output>
				<port id="0" precision="I64">
					<dim>4</dim>
				</port>
			</output>
		</layer>
		<layer id="236" name="/encoder/encoders.0/self_attn/Transpose_5" type="Transpose" version="opset1">
			<input>
				<port id="0" precision="FP32">
					<dim>-1</dim>
					<dim>4</dim>
					<dim>-1</dim>
					<dim>128</dim>
				</port>
				<port id="1" precision="I64">
					<dim>4</dim>
				</port>
			</input>
			<output>
				<port id="2" precision="FP32" names="/encoder/encoders.0/self_attn/Transpose_5_output_0">
					<dim>-1</dim>
					<dim>-1</dim>
					<dim>4</dim>
					<dim>128</dim>
				</port>
			</output>
		</layer>
		<layer id="237" name="/encoder/encoders.0/self_attn/Reshape_4" type="Reshape" version="opset1">
			<data special_zero="true" />
			<input>
				<port id="0" precision="FP32">
					<dim>-1</dim>
					<dim>-1</dim>
					<dim>4</dim>
					<dim>128</dim>
				</port>
				<port id="1" precision="I64">
					<dim>3</dim>
				</port>
			</input>
			<output>
				<port id="2" precision="FP32" names="/encoder/encoders.0/self_attn/Reshape_4_output_0">
					<dim>-1</dim>
					<dim>-1</dim>
					<dim>512</dim>
				</port>
			</output>
		</layer>
		<layer id="238" name="Transpose_36239_compressed" type="Const" version="opset1">
			<data element_type="f16" shape="512, 512" offset="8113212" size="524288" />
			<output>
				<port id="0" precision="FP16">
					<dim>512</dim>
					<dim>512</dim>
				</port>
			</output>
		</layer>
		<layer id="239" name="Transpose_36239" type="Convert" version="opset1">
			<data destination_type="f32" />
			<rt_info>
				<attribute name="decompression" version="0" />
			</rt_info>
			<input>
				<port id="0" precision="FP16">
					<dim>512</dim>
					<dim>512</dim>
				</port>
			</input>
			<output>
				<port id="1" precision="FP32">
					<dim>512</dim>
					<dim>512</dim>
				</port>
			</output>
		</layer>
		<layer id="240" name="/encoder/encoders.0/self_attn/linear_out/MatMul" type="MatMul" version="opset1">
			<data transpose_a="false" transpose_b="true" />
			<input>
				<port id="0" precision="FP32">
					<dim>-1</dim>
					<dim>-1</dim>
					<dim>512</dim>
				</port>
				<port id="1" precision="FP32">
					<dim>512</dim>
					<dim>512</dim>
				</port>
			</input>
			<output>
				<port id="2" precision="FP32" names="/encoder/encoders.0/self_attn/linear_out/MatMul_output_0">
					<dim>-1</dim>
					<dim>-1</dim>
					<dim>512</dim>
				</port>
			</output>
		</layer>
		<layer id="241" name="/encoder/encoders.0/self_attn/linear_out/Add" type="Add" version="opset1">
			<data auto_broadcast="numpy" />
			<input>
				<port id="0" precision="FP32">
					<dim>1</dim>
					<dim>1</dim>
					<dim>512</dim>
				</port>
				<port id="1" precision="FP32">
					<dim>-1</dim>
					<dim>-1</dim>
					<dim>512</dim>
				</port>
			</input>
			<output>
				<port id="2" precision="FP32" names="/encoder/encoders.0/self_attn/linear_out/Add_output_0">
					<dim>-1</dim>
					<dim>-1</dim>
					<dim>512</dim>
				</port>
			</output>
		</layer>
		<layer id="242" name="/encoder/encoders.0/self_attn/Mul" type="Multiply" version="opset1">
			<data auto_broadcast="numpy" />
			<input>
				<port id="0" precision="FP32">
					<dim>-1</dim>
					<dim>-1</dim>
					<dim>512</dim>
				</port>
				<port id="1" precision="FP32">
					<dim>-1</dim>
					<dim>-1</dim>
					<dim>1</dim>
				</port>
			</input>
			<output>
				<port id="2" precision="FP32" names="/encoder/encoders.0/self_attn/Mul_output_0">
					<dim>-1</dim>
					<dim>-1</dim>
					<dim>512</dim>
				</port>
			</output>
		</layer>
		<layer id="243" name="Constant_1424" type="Const" version="opset1">
			<data element_type="i64" shape="3" offset="2321444" size="24" />
			<output>
				<port id="0" precision="I64">
					<dim>3</dim>
				</port>
			</output>
		</layer>
		<layer id="244" name="/encoder/encoders.0/self_attn/Transpose_2" type="Transpose" version="opset1">
			<input>
				<port id="0" precision="FP32">
					<dim>-1</dim>
					<dim>-1</dim>
					<dim>512</dim>
				</port>
				<port id="1" precision="I64">
					<dim>3</dim>
				</port>
			</input>
			<output>
				<port id="2" precision="FP32" names="/encoder/encoders.0/self_attn/Transpose_2_output_0">
					<dim>-1</dim>
					<dim>512</dim>
					<dim>-1</dim>
				</port>
			</output>
		</layer>
		<layer id="245" name="Reshape_1460_compressed" type="Const" version="opset1">
			<data element_type="f16" shape="512, 1, 1, 11" offset="8637500" size="11264" />
			<output>
				<port id="0" precision="FP16">
					<dim>512</dim>
					<dim>1</dim>
					<dim>1</dim>
					<dim>11</dim>
				</port>
			</output>
		</layer>
		<layer id="246" name="Reshape_1460" type="Convert" version="opset1">
			<data destination_type="f32" />
			<rt_info>
				<attribute name="decompression" version="0" />
			</rt_info>
			<input>
				<port id="0" precision="FP16">
					<dim>512</dim>
					<dim>1</dim>
					<dim>1</dim>
					<dim>11</dim>
				</port>
			</input>
			<output>
				<port id="1" precision="FP32">
					<dim>512</dim>
					<dim>1</dim>
					<dim>1</dim>
					<dim>11</dim>
				</port>
			</output>
		</layer>
		<layer id="247" name="/encoder/encoders.0/self_attn/fsmn_block/Conv" type="GroupConvolution" version="opset1">
			<data strides="1" pads_begin="5" pads_end="5" dilations="1" auto_pad="explicit" />
			<input>
				<port id="0" precision="FP32">
					<dim>-1</dim>
					<dim>512</dim>
					<dim>-1</dim>
				</port>
				<port id="1" precision="FP32">
					<dim>512</dim>
					<dim>1</dim>
					<dim>1</dim>
					<dim>11</dim>
				</port>
			</input>
			<output>
				<port id="2" precision="FP32" names="/encoder/encoders.0/self_attn/fsmn_block/Conv_output_0">
					<dim>-1</dim>
					<dim>512</dim>
					<dim>-1</dim>
				</port>
			</output>
		</layer>
		<layer id="248" name="Constant_1500" type="Const" version="opset1">
			<data element_type="i64" shape="3" offset="2321444" size="24" />
			<output>
				<port id="0" precision="I64">
					<dim>3</dim>
				</port>
			</output>
		</layer>
		<layer id="249" name="/encoder/encoders.0/self_attn/Transpose_3" type="Transpose" version="opset1">
			<input>
				<port id="0" precision="FP32">
					<dim>-1</dim>
					<dim>512</dim>
					<dim>-1</dim>
				</port>
				<port id="1" precision="I64">
					<dim>3</dim>
				</port>
			</input>
			<output>
				<port id="2" precision="FP32" names="/encoder/encoders.0/self_attn/Transpose_3_output_0">
					<dim>-1</dim>
					<dim>-1</dim>
					<dim>512</dim>
				</port>
			</output>
		</layer>
		<layer id="250" name="/encoder/encoders.0/self_attn/Add" type="Add" version="opset1">
			<data auto_broadcast="numpy" />
			<input>
				<port id="0" precision="FP32">
					<dim>-1</dim>
					<dim>-1</dim>
					<dim>512</dim>
				</port>
				<port id="1" precision="FP32">
					<dim>-1</dim>
					<dim>-1</dim>
					<dim>512</dim>
				</port>
			</input>
			<output>
				<port id="2" precision="FP32" names="/encoder/encoders.0/self_attn/Add_output_0">
					<dim>-1</dim>
					<dim>-1</dim>
					<dim>512</dim>
				</port>
			</output>
		</layer>
		<layer id="251" name="/encoder/encoders.0/self_attn/Mul_1" type="Multiply" version="opset1">
			<data auto_broadcast="numpy" />
			<input>
				<port id="0" precision="FP32">
					<dim>-1</dim>
					<dim>-1</dim>
					<dim>512</dim>
				</port>
				<port id="1" precision="FP32">
					<dim>-1</dim>
					<dim>-1</dim>
					<dim>1</dim>
				</port>
			</input>
			<output>
				<port id="2" precision="FP32" names="/encoder/encoders.0/self_attn/Mul_1_output_0">
					<dim>-1</dim>
					<dim>-1</dim>
					<dim>512</dim>
				</port>
			</output>
		</layer>
		<layer id="252" name="/encoder/encoders.0/self_attn/Add_1" type="Add" version="opset1">
			<data auto_broadcast="numpy" />
			<input>
				<port id="0" precision="FP32">
					<dim>-1</dim>
					<dim>-1</dim>
					<dim>512</dim>
				</port>
				<port id="1" precision="FP32">
					<dim>-1</dim>
					<dim>-1</dim>
					<dim>512</dim>
				</port>
			</input>
			<output>
				<port id="2" precision="FP32" names="/encoder/encoders.0/Mul_output_0,/encoder/encoders.0/self_attn/Add_1_output_0">
					<dim>-1</dim>
					<dim>-1</dim>
					<dim>512</dim>
				</port>
			</output>
		</layer>
		<layer id="253" name="/encoder/encoders.0/Add" type="Add" version="opset1">
			<data auto_broadcast="numpy" />
			<input>
				<port id="0" precision="FP32">
					<dim>-1</dim>
					<dim>-1</dim>
					<dim>512</dim>
				</port>
				<port id="1" precision="FP32">
					<dim>-1</dim>
					<dim>-1</dim>
					<dim>512</dim>
				</port>
			</input>
			<output>
				<port id="2" precision="FP32" names="/encoder/encoders.0/Add_output_0,/encoder/encoders.0/norm2/Cast_output_0">
					<dim>-1</dim>
					<dim>-1</dim>
					<dim>512</dim>
				</port>
			</output>
		</layer>
		<layer id="254" name="Constant_41631_compressed" type="Const" version="opset1">
			<data element_type="f16" shape="1, 1, 512" offset="8648764" size="1024" />
			<output>
				<port id="0" precision="FP16">
					<dim>1</dim>
					<dim>1</dim>
					<dim>512</dim>
				</port>
			</output>
		</layer>
		<layer id="255" name="Constant_41631" type="Convert" version="opset1">
			<data destination_type="f32" />
			<rt_info>
				<attribute name="decompression" version="0" />
			</rt_info>
			<input>
				<port id="0" precision="FP16">
					<dim>1</dim>
					<dim>1</dim>
					<dim>512</dim>
				</port>
			</input>
			<output>
				<port id="1" precision="FP32">
					<dim>1</dim>
					<dim>1</dim>
					<dim>512</dim>
				</port>
			</output>
		</layer>
		<layer id="256" name="Constant_41630_compressed" type="Const" version="opset1">
			<data element_type="f16" shape="1, 1, 2048" offset="8649788" size="4096" />
			<output>
				<port id="0" precision="FP16">
					<dim>1</dim>
					<dim>1</dim>
					<dim>2048</dim>
				</port>
			</output>
		</layer>
		<layer id="257" name="Constant_41630" type="Convert" version="opset1">
			<data destination_type="f32" />
			<rt_info>
				<attribute name="decompression" version="0" />
			</rt_info>
			<input>
				<port id="0" precision="FP16">
					<dim>1</dim>
					<dim>1</dim>
					<dim>2048</dim>
				</port>
			</input>
			<output>
				<port id="1" precision="FP32">
					<dim>1</dim>
					<dim>1</dim>
					<dim>2048</dim>
				</port>
			</output>
		</layer>
		<layer id="258" name="Constant_1536" type="Const" version="opset1">
			<data element_type="i64" shape="1" offset="16" size="8" />
			<output>
				<port id="0" precision="I64">
					<dim>1</dim>
				</port>
			</output>
		</layer>
		<layer id="259" name="/encoder/encoders.0/norm2/Div" type="MVN" version="opset6">
			<data eps="9.9999997473787516e-06" normalize_variance="true" eps_mode="INSIDE_SQRT" />
			<input>
				<port id="0" precision="FP32">
					<dim>-1</dim>
					<dim>-1</dim>
					<dim>512</dim>
				</port>
				<port id="1" precision="I64">
					<dim>1</dim>
				</port>
			</input>
			<output>
				<port id="2" precision="FP32" names="/encoder/encoders.0/norm2/Div_output_0">
					<dim>-1</dim>
					<dim>-1</dim>
					<dim>512</dim>
				</port>
			</output>
		</layer>
		<layer id="260" name="Constant_41628_compressed" type="Const" version="opset1">
			<data element_type="f16" shape="1, 1, 512" offset="8653884" size="1024" />
			<output>
				<port id="0" precision="FP16">
					<dim>1</dim>
					<dim>1</dim>
					<dim>512</dim>
				</port>
			</output>
		</layer>
		<layer id="261" name="Constant_41628" type="Convert" version="opset1">
			<data destination_type="f32" />
			<rt_info>
				<attribute name="decompression" version="0" />
			</rt_info>
			<input>
				<port id="0" precision="FP16">
					<dim>1</dim>
					<dim>1</dim>
					<dim>512</dim>
				</port>
			</input>
			<output>
				<port id="1" precision="FP32">
					<dim>1</dim>
					<dim>1</dim>
					<dim>512</dim>
				</port>
			</output>
		</layer>
		<layer id="262" name="/encoder/encoders.0/norm2/Mul" type="Multiply" version="opset1">
			<data auto_broadcast="numpy" />
			<input>
				<port id="0" precision="FP32">
					<dim>-1</dim>
					<dim>-1</dim>
					<dim>512</dim>
				</port>
				<port id="1" precision="FP32">
					<dim>1</dim>
					<dim>1</dim>
					<dim>512</dim>
				</port>
			</input>
			<output>
				<port id="2" precision="FP32" names="/encoder/encoders.0/norm2/Mul_output_0">
					<dim>-1</dim>
					<dim>-1</dim>
					<dim>512</dim>
				</port>
			</output>
		</layer>
		<layer id="263" name="Constant_41629_compressed" type="Const" version="opset1">
			<data element_type="f16" shape="1, 1, 512" offset="8654908" size="1024" />
			<output>
				<port id="0" precision="FP16">
					<dim>1</dim>
					<dim>1</dim>
					<dim>512</dim>
				</port>
			</output>
		</layer>
		<layer id="264" name="Constant_41629" type="Convert" version="opset1">
			<data destination_type="f32" />
			<rt_info>
				<attribute name="decompression" version="0" />
			</rt_info>
			<input>
				<port id="0" precision="FP16">
					<dim>1</dim>
					<dim>1</dim>
					<dim>512</dim>
				</port>
			</input>
			<output>
				<port id="1" precision="FP32">
					<dim>1</dim>
					<dim>1</dim>
					<dim>512</dim>
				</port>
			</output>
		</layer>
		<layer id="265" name="/encoder/encoders.0/norm2/Add_1" type="Add" version="opset1">
			<data auto_broadcast="numpy" />
			<input>
				<port id="0" precision="FP32">
					<dim>-1</dim>
					<dim>-1</dim>
					<dim>512</dim>
				</port>
				<port id="1" precision="FP32">
					<dim>1</dim>
					<dim>1</dim>
					<dim>512</dim>
				</port>
			</input>
			<output>
				<port id="2" precision="FP32" names="/encoder/encoders.0/norm2/Add_1_output_0">
					<dim>-1</dim>
					<dim>-1</dim>
					<dim>512</dim>
				</port>
			</output>
		</layer>
		<layer id="266" name="Transpose_36266_compressed" type="Const" version="opset1">
			<data element_type="f16" shape="2048, 512" offset="8655932" size="2097152" />
			<output>
				<port id="0" precision="FP16">
					<dim>2048</dim>
					<dim>512</dim>
				</port>
			</output>
		</layer>
		<layer id="267" name="Transpose_36266" type="Convert" version="opset1">
			<data destination_type="f32" />
			<rt_info>
				<attribute name="decompression" version="0" />
			</rt_info>
			<input>
				<port id="0" precision="FP16">
					<dim>2048</dim>
					<dim>512</dim>
				</port>
			</input>
			<output>
				<port id="1" precision="FP32">
					<dim>2048</dim>
					<dim>512</dim>
				</port>
			</output>
		</layer>
		<layer id="268" name="/encoder/encoders.0/feed_forward/w_1/MatMul" type="MatMul" version="opset1">
			<data transpose_a="false" transpose_b="true" />
			<input>
				<port id="0" precision="FP32">
					<dim>-1</dim>
					<dim>-1</dim>
					<dim>512</dim>
				</port>
				<port id="1" precision="FP32">
					<dim>2048</dim>
					<dim>512</dim>
				</port>
			</input>
			<output>
				<port id="2" precision="FP32" names="/encoder/encoders.0/feed_forward/w_1/MatMul_output_0">
					<dim>-1</dim>
					<dim>-1</dim>
					<dim>2048</dim>
				</port>
			</output>
		</layer>
		<layer id="269" name="/encoder/encoders.0/feed_forward/w_1/Add" type="Add" version="opset1">
			<data auto_broadcast="numpy" />
			<input>
				<port id="0" precision="FP32">
					<dim>1</dim>
					<dim>1</dim>
					<dim>2048</dim>
				</port>
				<port id="1" precision="FP32">
					<dim>-1</dim>
					<dim>-1</dim>
					<dim>2048</dim>
				</port>
			</input>
			<output>
				<port id="2" precision="FP32" names="/encoder/encoders.0/feed_forward/w_1/Add_output_0">
					<dim>-1</dim>
					<dim>-1</dim>
					<dim>2048</dim>
				</port>
			</output>
		</layer>
		<layer id="270" name="/encoder/encoders.0/feed_forward/activation/Relu" type="ReLU" version="opset1">
			<input>
				<port id="0" precision="FP32">
					<dim>-1</dim>
					<dim>-1</dim>
					<dim>2048</dim>
				</port>
			</input>
			<output>
				<port id="1" precision="FP32" names="/encoder/encoders.0/feed_forward/activation/Relu_output_0">
					<dim>-1</dim>
					<dim>-1</dim>
					<dim>2048</dim>
				</port>
			</output>
		</layer>
		<layer id="271" name="Transpose_36273_compressed" type="Const" version="opset1">
			<data element_type="f16" shape="512, 2048" offset="10753084" size="2097152" />
			<output>
				<port id="0" precision="FP16">
					<dim>512</dim>
					<dim>2048</dim>
				</port>
			</output>
		</layer>
		<layer id="272" name="Transpose_36273" type="Convert" version="opset1">
			<data destination_type="f32" />
			<rt_info>
				<attribute name="decompression" version="0" />
			</rt_info>
			<input>
				<port id="0" precision="FP16">
					<dim>512</dim>
					<dim>2048</dim>
				</port>
			</input>
			<output>
				<port id="1" precision="FP32">
					<dim>512</dim>
					<dim>2048</dim>
				</port>
			</output>
		</layer>
		<layer id="273" name="/encoder/encoders.0/feed_forward/w_2/MatMul" type="MatMul" version="opset1">
			<data transpose_a="false" transpose_b="true" />
			<input>
				<port id="0" precision="FP32">
					<dim>-1</dim>
					<dim>-1</dim>
					<dim>2048</dim>
				</port>
				<port id="1" precision="FP32">
					<dim>512</dim>
					<dim>2048</dim>
				</port>
			</input>
			<output>
				<port id="2" precision="FP32" names="/encoder/encoders.0/feed_forward/w_2/MatMul_output_0">
					<dim>-1</dim>
					<dim>-1</dim>
					<dim>512</dim>
				</port>
			</output>
		</layer>
		<layer id="274" name="/encoder/encoders.0/feed_forward/w_2/Add" type="Add" version="opset1">
			<data auto_broadcast="numpy" />
			<input>
				<port id="0" precision="FP32">
					<dim>1</dim>
					<dim>1</dim>
					<dim>512</dim>
				</port>
				<port id="1" precision="FP32">
					<dim>-1</dim>
					<dim>-1</dim>
					<dim>512</dim>
				</port>
			</input>
			<output>
				<port id="2" precision="FP32" names="/encoder/encoders.0/Mul_1_output_0,/encoder/encoders.0/feed_forward/w_2/Add_output_0">
					<dim>-1</dim>
					<dim>-1</dim>
					<dim>512</dim>
				</port>
			</output>
		</layer>
		<layer id="275" name="/encoder/encoders.0/Add_1" type="Add" version="opset1">
			<data auto_broadcast="numpy" />
			<input>
				<port id="0" precision="FP32">
					<dim>-1</dim>
					<dim>-1</dim>
					<dim>512</dim>
				</port>
				<port id="1" precision="FP32">
					<dim>-1</dim>
					<dim>-1</dim>
					<dim>512</dim>
				</port>
			</input>
			<output>
				<port id="2" precision="FP32" names="/encoder/encoders.0/Add_1_output_0,/encoder/encoders.1/norm1/Cast_output_0">
					<dim>-1</dim>
					<dim>-1</dim>
					<dim>512</dim>
				</port>
			</output>
		</layer>
		<layer id="276" name="Constant_41636_compressed" type="Const" version="opset1">
			<data element_type="f16" shape="1, 1, 512" offset="12850236" size="1024" />
			<output>
				<port id="0" precision="FP16">
					<dim>1</dim>
					<dim>1</dim>
					<dim>512</dim>
				</port>
			</output>
		</layer>
		<layer id="277" name="Constant_41636" type="Convert" version="opset1">
			<data destination_type="f32" />
			<rt_info>
				<attribute name="decompression" version="0" />
			</rt_info>
			<input>
				<port id="0" precision="FP16">
					<dim>1</dim>
					<dim>1</dim>
					<dim>512</dim>
				</port>
			</input>
			<output>
				<port id="1" precision="FP32">
					<dim>1</dim>
					<dim>1</dim>
					<dim>512</dim>
				</port>
			</output>
		</layer>
		<layer id="278" name="/encoder/encoders.1/self_attn/Constant_15_compressed" type="Const" version="opset1">
			<data element_type="f16" shape="" offset="0" size="2" />
			<output>
				<port id="0" precision="FP16" names="/encoder/encoders.1/self_attn/Constant_15_output_0" />
			</output>
		</layer>
		<layer id="279" name="/encoder/encoders.1/self_attn/Constant_15" type="Convert" version="opset1">
			<data destination_type="f32" />
			<rt_info>
				<attribute name="decompression" version="0" />
			</rt_info>
			<input>
				<port id="0" precision="FP16" />
			</input>
			<output>
				<port id="1" precision="FP32" />
			</output>
		</layer>
		<layer id="280" name="/encoder/encoders.1/self_attn/Constant_14" type="Const" version="opset1">
			<data element_type="f32" shape="" offset="51166" size="4" />
			<output>
				<port id="0" precision="FP32" names="/encoder/encoders.1/self_attn/Constant_14_output_0" />
			</output>
		</layer>
		<layer id="281" name="Constant_41634_compressed" type="Const" version="opset1">
			<data element_type="f16" shape="1, 1, 1536" offset="12851260" size="3072" />
			<output>
				<port id="0" precision="FP16">
					<dim>1</dim>
					<dim>1</dim>
					<dim>1536</dim>
				</port>
			</output>
		</layer>
		<layer id="282" name="Constant_41634" type="Convert" version="opset1">
			<data destination_type="f32" />
			<rt_info>
				<attribute name="decompression" version="0" />
			</rt_info>
			<input>
				<port id="0" precision="FP16">
					<dim>1</dim>
					<dim>1</dim>
					<dim>1536</dim>
				</port>
			</input>
			<output>
				<port id="1" precision="FP32">
					<dim>1</dim>
					<dim>1</dim>
					<dim>1536</dim>
				</port>
			</output>
		</layer>
		<layer id="283" name="Constant_1558" type="Const" version="opset1">
			<data element_type="i64" shape="1" offset="16" size="8" />
			<output>
				<port id="0" precision="I64">
					<dim>1</dim>
				</port>
			</output>
		</layer>
		<layer id="284" name="/encoder/encoders.1/norm1/Div" type="MVN" version="opset6">
			<data eps="9.9999997473787516e-06" normalize_variance="true" eps_mode="INSIDE_SQRT" />
			<input>
				<port id="0" precision="FP32">
					<dim>-1</dim>
					<dim>-1</dim>
					<dim>512</dim>
				</port>
				<port id="1" precision="I64">
					<dim>1</dim>
				</port>
			</input>
			<output>
				<port id="2" precision="FP32" names="/encoder/encoders.1/norm1/Div_output_0">
					<dim>-1</dim>
					<dim>-1</dim>
					<dim>512</dim>
				</port>
			</output>
		</layer>
		<layer id="285" name="Constant_41632_compressed" type="Const" version="opset1">
			<data element_type="f16" shape="1, 1, 512" offset="12854332" size="1024" />
			<output>
				<port id="0" precision="FP16">
					<dim>1</dim>
					<dim>1</dim>
					<dim>512</dim>
				</port>
			</output>
		</layer>
		<layer id="286" name="Constant_41632" type="Convert" version="opset1">
			<data destination_type="f32" />
			<rt_info>
				<attribute name="decompression" version="0" />
			</rt_info>
			<input>
				<port id="0" precision="FP16">
					<dim>1</dim>
					<dim>1</dim>
					<dim>512</dim>
				</port>
			</input>
			<output>
				<port id="1" precision="FP32">
					<dim>1</dim>
					<dim>1</dim>
					<dim>512</dim>
				</port>
			</output>
		</layer>
		<layer id="287" name="/encoder/encoders.1/norm1/Mul" type="Multiply" version="opset1">
			<data auto_broadcast="numpy" />
			<input>
				<port id="0" precision="FP32">
					<dim>-1</dim>
					<dim>-1</dim>
					<dim>512</dim>
				</port>
				<port id="1" precision="FP32">
					<dim>1</dim>
					<dim>1</dim>
					<dim>512</dim>
				</port>
			</input>
			<output>
				<port id="2" precision="FP32" names="/encoder/encoders.1/norm1/Mul_output_0">
					<dim>-1</dim>
					<dim>-1</dim>
					<dim>512</dim>
				</port>
			</output>
		</layer>
		<layer id="288" name="Constant_41633_compressed" type="Const" version="opset1">
			<data element_type="f16" shape="1, 1, 512" offset="12855356" size="1024" />
			<output>
				<port id="0" precision="FP16">
					<dim>1</dim>
					<dim>1</dim>
					<dim>512</dim>
				</port>
			</output>
		</layer>
		<layer id="289" name="Constant_41633" type="Convert" version="opset1">
			<data destination_type="f32" />
			<rt_info>
				<attribute name="decompression" version="0" />
			</rt_info>
			<input>
				<port id="0" precision="FP16">
					<dim>1</dim>
					<dim>1</dim>
					<dim>512</dim>
				</port>
			</input>
			<output>
				<port id="1" precision="FP32">
					<dim>1</dim>
					<dim>1</dim>
					<dim>512</dim>
				</port>
			</output>
		</layer>
		<layer id="290" name="/encoder/encoders.1/norm1/Add_1" type="Add" version="opset1">
			<data auto_broadcast="numpy" />
			<input>
				<port id="0" precision="FP32">
					<dim>-1</dim>
					<dim>-1</dim>
					<dim>512</dim>
				</port>
				<port id="1" precision="FP32">
					<dim>1</dim>
					<dim>1</dim>
					<dim>512</dim>
				</port>
			</input>
			<output>
				<port id="2" precision="FP32" names="/encoder/encoders.1/norm1/Add_1_output_0">
					<dim>-1</dim>
					<dim>-1</dim>
					<dim>512</dim>
				</port>
			</output>
		</layer>
		<layer id="291" name="Transpose_36291_compressed" type="Const" version="opset1">
			<data element_type="f16" shape="1536, 512" offset="12856380" size="1572864" />
			<output>
				<port id="0" precision="FP16">
					<dim>1536</dim>
					<dim>512</dim>
				</port>
			</output>
		</layer>
		<layer id="292" name="Transpose_36291" type="Convert" version="opset1">
			<data destination_type="f32" />
			<rt_info>
				<attribute name="decompression" version="0" />
			</rt_info>
			<input>
				<port id="0" precision="FP16">
					<dim>1536</dim>
					<dim>512</dim>
				</port>
			</input>
			<output>
				<port id="1" precision="FP32">
					<dim>1536</dim>
					<dim>512</dim>
				</port>
			</output>
		</layer>
…
		<edge from-layer="5285" from-port="5" to-layer="5313" to-port="0" />
		<edge from-layer="5285" from-port="3" to-layer="5287" to-port="0" />
		<edge from-layer="5285" from-port="4" to-layer="5294" to-port="0" />
		<edge from-layer="5285" from-port="5" to-layer="5302" to-port="0" />
		<edge from-layer="5286" from-port="0" to-layer="5287" to-port="1" />
		<edge from-layer="5287" from-port="2" to-layer="5289" to-port="0" />
		<edge from-layer="5288" from-port="0" to-layer="5289" to-port="1" />
		<edge from-layer="5289" from-port="2" to-layer="5292" to-port="0" />
		<edge from-layer="5290" from-port="0" to-layer="5291" to-port="0" />
		<edge from-layer="5291" from-port="1" to-layer="5292" to-port="1" />
		<edge from-layer="5292" from-port="2" to-layer="5297" to-port="0" />
		<edge from-layer="5293" from-port="0" to-layer="5294" to-port="1" />
		<edge from-layer="5294" from-port="2" to-layer="5296" to-port="0" />
		<edge from-layer="5295" from-port="0" to-layer="5296" to-port="1" />
		<edge from-layer="5296" from-port="2" to-layer="5297" to-port="1" />
		<edge from-layer="5297" from-port="2" to-layer="5298" to-port="2" />
		<edge from-layer="5298" from-port="3" to-layer="5299" to-port="0" />
		<edge from-layer="5299" from-port="1" to-layer="5300" to-port="2" />
		<edge from-layer="5300" from-port="3" to-layer="5305" to-port="0" />
		<edge from-layer="5301" from-port="0" to-layer="5302" to-port="1" />
		<edge from-layer="5302" from-port="2" to-layer="5304" to-port="0" />
		<edge from-layer="5303" from-port="0" to-layer="5304" to-port="1" />
		<edge from-layer="5304" from-port="2" to-layer="5305" to-port="1" />
		<edge from-layer="5305" from-port="2" to-layer="5307" to-port="0" />
		<edge from-layer="5306" from-port="0" to-layer="5307" to-port="1" />
		<edge from-layer="5307" from-port="2" to-layer="5308" to-port="0" />
		<edge from-layer="5308" from-port="2" to-layer="5311" to-port="0" />
		<edge from-layer="5309" from-port="0" to-layer="5310" to-port="0" />
		<edge from-layer="5310" from-port="1" to-layer="5311" to-port="1" />
		<edge from-layer="5311" from-port="2" to-layer="5312" to-port="1" />
		<edge from-layer="5312" from-port="2" to-layer="5323" to-port="0" />
		<edge from-layer="5313" from-port="2" to-layer="5321" to-port="1" />
		<edge from-layer="5313" from-port="2" to-layer="5315" to-port="0" />
		<edge from-layer="5314" from-port="0" to-layer="5315" to-port="1" />
		<edge from-layer="5315" from-port="2" to-layer="5318" to-port="0" />
		<edge from-layer="5316" from-port="0" to-layer="5317" to-port="0" />
		<edge from-layer="5317" from-port="1" to-layer="5318" to-port="1" />
		<edge from-layer="5318" from-port="2" to-layer="5320" to-port="0" />
		<edge from-layer="5319" from-port="0" to-layer="5320" to-port="1" />
		<edge from-layer="5320" from-port="2" to-layer="5321" to-port="0" />
		<edge from-layer="5321" from-port="2" to-layer="5322" to-port="0" />
		<edge from-layer="5322" from-port="2" to-layer="5323" to-port="1" />
		<edge from-layer="5323" from-port="2" to-layer="5324" to-port="1" />
		<edge from-layer="5324" from-port="2" to-layer="5330" to-port="0" />
		<edge from-layer="5324" from-port="2" to-layer="5346" to-port="0" />
		<edge from-layer="5325" from-port="0" to-layer="5326" to-port="0" />
		<edge from-layer="5326" from-port="1" to-layer="5345" to-port="0" />
		<edge from-layer="5327" from-port="0" to-layer="5328" to-port="0" />
		<edge from-layer="5328" from-port="1" to-layer="5340" to-port="0" />
		<edge from-layer="5329" from-port="0" to-layer="5330" to-port="1" />
		<edge from-layer="5330" from-port="2" to-layer="5333" to-port="0" />
		<edge from-layer="5331" from-port="0" to-layer="5332" to-port="0" />
		<edge from-layer="5332" from-port="1" to-layer="5333" to-port="1" />
		<edge from-layer="5333" from-port="2" to-layer="5336" to-port="0" />
		<edge from-layer="5334" from-port="0" to-layer="5335" to-port="0" />
		<edge from-layer="5335" from-port="1" to-layer="5336" to-port="1" />
		<edge from-layer="5336" from-port="2" to-layer="5339" to-port="0" />
		<edge from-layer="5337" from-port="0" to-layer="5338" to-port="0" />
		<edge from-layer="5338" from-port="1" to-layer="5339" to-port="1" />
		<edge from-layer="5339" from-port="2" to-layer="5340" to-port="1" />
		<edge from-layer="5340" from-port="2" to-layer="5341" to-port="0" />
		<edge from-layer="5341" from-port="1" to-layer="5344" to-port="0" />
		<edge from-layer="5342" from-port="0" to-layer="5343" to-port="0" />
		<edge from-layer="5343" from-port="1" to-layer="5344" to-port="1" />
		<edge from-layer="5344" from-port="2" to-layer="5345" to-port="1" />
		<edge from-layer="5345" from-port="2" to-layer="5346" to-port="1" />
		<edge from-layer="5346" from-port="2" to-layer="5407" to-port="0" />
		<edge from-layer="5346" from-port="2" to-layer="5355" to-port="0" />
		<edge from-layer="5347" from-port="0" to-layer="5348" to-port="0" />
		<edge from-layer="5348" from-port="1" to-layer="5395" to-port="0" />
		<edge from-layer="5349" from-port="0" to-layer="5350" to-port="0" />
		<edge from-layer="5350" from-port="1" to-layer="5383" to-port="1" />
		<edge from-layer="5351" from-port="0" to-layer="5381" to-port="1" />
		<edge from-layer="5352" from-port="0" to-layer="5353" to-port="0" />
		<edge from-layer="5353" from-port="1" to-layer="5365" to-port="0" />
		<edge from-layer="5354" from-port="0" to-layer="5355" to-port="1" />
		<edge from-layer="5355" from-port="2" to-layer="5358" to-port="0" />
		<edge from-layer="5356" from-port="0" to-layer="5357" to-port="0" />
		<edge from-layer="5357" from-port="1" to-layer="5358" to-port="1" />
		<edge from-layer="5358" from-port="2" to-layer="5361" to-port="0" />
		<edge from-layer="5359" from-port="0" to-layer="5360" to-port="0" />
		<edge from-layer="5360" from-port="1" to-layer="5361" to-port="1" />
		<edge from-layer="5361" from-port="2" to-layer="5364" to-port="0" />
		<edge from-layer="5362" from-port="0" to-layer="5363" to-port="0" />
		<edge from-layer="5363" from-port="1" to-layer="5364" to-port="1" />
		<edge from-layer="5364" from-port="2" to-layer="5365" to-port="1" />
		<edge from-layer="5365" from-port="2" to-layer="5368" to-port="0" />
		<edge from-layer="5366" from-port="0" to-layer="5368" to-port="1" />
		<edge from-layer="5367" from-port="0" to-layer="5368" to-port="2" />
		<edge from-layer="5368" from-port="5" to-layer="5385" to-port="0" />
		<edge from-layer="5368" from-port="3" to-layer="5370" to-port="0" />
		<edge from-layer="5368" from-port="4" to-layer="5377" to-port="0" />
		<edge from-layer="5368" from-port="5" to-layer="5396" to-port="0" />
		<edge from-layer="5369" from-port="0" to-layer="5370" to-port="1" />
		<edge from-layer="5370" from-port="2" to-layer="5372" to-port="0" />
		<edge from-layer="5371" from-port="0" to-layer="5372" to-port="1" />
		<edge from-layer="5372" from-port="2" to-layer="5375" to-port="0" />
		<edge from-layer="5373" from-port="0" to-layer="5374" to-port="0" />
		<edge from-layer="5374" from-port="1" to-layer="5375" to-port="1" />
		<edge from-layer="5375" from-port="2" to-layer="5380" to-port="0" />
		<edge from-layer="5376" from-port="0" to-layer="5377" to-port="1" />
		<edge from-layer="5377" from-port="2" to-layer="5379" to-port="0" />
		<edge from-layer="5378" from-port="0" to-layer="5379" to-port="1" />
		<edge from-layer="5379" from-port="2" to-layer="5380" to-port="1" />
		<edge from-layer="5380" from-port="2" to-layer="5381" to-port="2" />
		<edge from-layer="5381" from-port="3" to-layer="5382" to-port="0" />
		<edge from-layer="5382" from-port="1" to-layer="5383" to-port="2" />
		<edge from-layer="5383" from-port="3" to-layer="5388" to-port="0" />
		<edge from-layer="5384" from-port="0" to-layer="5385" to-port="1" />
		<edge from-layer="5385" from-port="2" to-layer="5387" to-port="0" />
		<edge from-layer="5386" from-port="0" to-layer="5387" to-port="1" />
		<edge from-layer="5387" from-port="2" to-layer="5388" to-port="1" />
		<edge from-layer="5388" from-port="2" to-layer="5390" to-port="0" />
		<edge from-layer="5389" from-port="0" to-layer="5390" to-port="1" />
		<edge from-layer="5390" from-port="2" to-layer="5391" to-port="0" />
		<edge from-layer="5391" from-port="2" to-layer="5394" to-port="0" />
		<edge from-layer="5392" from-port="0" to-layer="5393" to-port="0" />
		<edge from-layer="5393" from-port="1" to-layer="5394" to-port="1" />
		<edge from-layer="5394" from-port="2" to-layer="5395" to-port="1" />
		<edge from-layer="5395" from-port="2" to-layer="5406" to-port="0" />
		<edge from-layer="5396" from-port="2" to-layer="5398" to-port="0" />
		<edge from-layer="5396" from-port="2" to-layer="5404" to-port="1" />
		<edge from-layer="5397" from-port="0" to-layer="5398" to-port="1" />
		<edge from-layer="5398" from-port="2" to-layer="5401" to-port="0" />
		<edge from-layer="5399" from-port="0" to-layer="5400" to-port="0" />
		<edge from-layer="5400" from-port="1" to-layer="5401" to-port="1" />
		<edge from-layer="5401" from-port="2" to-layer="5403" to-port="0" />
		<edge from-layer="5402" from-port="0" to-layer="5403" to-port="1" />
		<edge from-layer="5403" from-port="2" to-layer="5404" to-port="0" />
		<edge from-layer="5404" from-port="2" to-layer="5405" to-port="0" />
		<edge from-layer="5405" from-port="2" to-layer="5406" to-port="1" />
		<edge from-layer="5406" from-port="2" to-layer="5407" to-port="1" />
		<edge from-layer="5407" from-port="2" to-layer="5429" to-port="0" />
		<edge from-layer="5407" from-port="2" to-layer="5413" to-port="0" />
		<edge from-layer="5408" from-port="0" to-layer="5409" to-port="0" />
		<edge from-layer="5409" from-port="1" to-layer="5428" to-port="0" />
		<edge from-layer="5410" from-port="0" to-layer="5411" to-port="0" />
		<edge from-layer="5411" from-port="1" to-layer="5423" to-port="0" />
		<edge from-layer="5412" from-port="0" to-layer="5413" to-port="1" />
		<edge from-layer="5413" from-port="2" to-layer="5416" to-port="0" />
		<edge from-layer="5414" from-port="0" to-layer="5415" to-port="0" />
		<edge from-layer="5415" from-port="1" to-layer="5416" to-port="1" />
		<edge from-layer="5416" from-port="2" to-layer="5419" to-port="0" />
		<edge from-layer="5417" from-port="0" to-layer="5418" to-port="0" />
		<edge from-layer="5418" from-port="1" to-layer="5419" to-port="1" />
		<edge from-layer="5419" from-port="2" to-layer="5422" to-port="0" />
		<edge from-layer="5420" from-port="0" to-layer="5421" to-port="0" />
		<edge from-layer="5421" from-port="1" to-layer="5422" to-port="1" />
		<edge from-layer="5422" from-port="2" to-layer="5423" to-port="1" />
		<edge from-layer="5423" from-port="2" to-layer="5424" to-port="0" />
		<edge from-layer="5424" from-port="1" to-layer="5427" to-port="0" />
		<edge from-layer="5425" from-port="0" to-layer="5426" to-port="0" />
		<edge from-layer="5426" from-port="1" to-layer="5427" to-port="1" />
		<edge from-layer="5427" from-port="2" to-layer="5428" to-port="1" />
		<edge from-layer="5428" from-port="2" to-layer="5429" to-port="1" />
		<edge from-layer="5429" from-port="2" to-layer="5490" to-port="0" />
		<edge from-layer="5429" from-port="2" to-layer="5438" to-port="0" />
		<edge from-layer="5430" from-port="0" to-layer="5431" to-port="0" />
		<edge from-layer="5431" from-port="1" to-layer="5478" to-port="0" />
		<edge from-layer="5432" from-port="0" to-layer="5433" to-port="0" />
		<edge from-layer="5433" from-port="1" to-layer="5466" to-port="1" />
		<edge from-layer="5434" from-port="0" to-layer="5464" to-port="1" />
		<edge from-layer="5435" from-port="0" to-layer="5436" to-port="0" />
		<edge from-layer="5436" from-port="1" to-layer="5448" to-port="0" />
		<edge from-layer="5437" from-port="0" to-layer="5438" to-port="1" />
		<edge from-layer="5438" from-port="2" to-layer="5441" to-port="0" />
		<edge from-layer="5439" from-port="0" to-layer="5440" to-port="0" />
		<edge from-layer="5440" from-port="1" to-layer="5441" to-port="1" />
		<edge from-layer="5441" from-port="2" to-layer="5444" to-port="0" />
		<edge from-layer="5442" from-port="0" to-layer="5443" to-port="0" />
		<edge from-layer="5443" from-port="1" to-layer="5444" to-port="1" />
		<edge from-layer="5444" from-port="2" to-layer="5447" to-port="0" />
		<edge from-layer="5445" from-port="0" to-layer="5446" to-port="0" />
		<edge from-layer="5446" from-port="1" to-layer="5447" to-port="1" />
		<edge from-layer="5447" from-port="2" to-layer="5448" to-port="1" />
		<edge from-layer="5448" from-port="2" to-layer="5451" to-port="0" />
		<edge from-layer="5449" from-port="0" to-layer="5451" to-port="1" />
		<edge from-layer="5450" from-port="0" to-layer="5451" to-port="2" />
		<edge from-layer="5451" from-port="3" to-layer="5453" to-port="0" />
		<edge from-layer="5451" from-port="5" to-layer="5468" to-port="0" />
		<edge from-layer="5451" from-port="4" to-layer="5460" to-port="0" />
		<edge from-layer="5451" from-port="5" to-layer="5479" to-port="0" />
		<edge from-layer="5452" from-port="0" to-layer="5453" to-port="1" />
		<edge from-layer="5453" from-port="2" to-layer="5455" to-port="0" />
		<edge from-layer="5454" from-port="0" to-layer="5455" to-port="1" />
		<edge from-layer="5455" from-port="2" to-layer="5458" to-port="0" />
		<edge from-layer="5456" from-port="0" to-layer="5457" to-port="0" />
		<edge from-layer="5457" from-port="1" to-layer="5458" to-port="1" />
		<edge from-layer="5458" from-port="2" to-layer="5463" to-port="0" />
		<edge from-layer="5459" from-port="0" to-layer="5460" to-port="1" />
		<edge from-layer="5460" from-port="2" to-layer="5462" to-port="0" />
		<edge from-layer="5461" from-port="0" to-layer="5462" to-port="1" />
		<edge from-layer="5462" from-port="2" to-layer="5463" to-port="1" />
		<edge from-layer="5463" from-port="2" to-layer="5464" to-port="2" />
		<edge from-layer="5464" from-port="3" to-layer="5465" to-port="0" />
		<edge from-layer="5465" from-port="1" to-layer="5466" to-port="2" />
		<edge from-layer="5466" from-port="3" to-layer="5471" to-port="0" />
		<edge from-layer="5467" from-port="0" to-layer="5468" to-port="1" />
		<edge from-layer="5468" from-port="2" to-layer="5470" to-port="0" />
		<edge from-layer="5469" from-port="0" to-layer="5470" to-port="1" />
		<edge from-layer="5470" from-port="2" to-layer="5471" to-port="1" />
		<edge from-layer="5471" from-port="2" to-layer="5473" to-port="0" />
		<edge from-layer="5472" from-port="0" to-layer="5473" to-port="1" />
		<edge from-layer="5473" from-port="2" to-layer="5474" to-port="0" />
		<edge from-layer="5474" from-port="2" to-layer="5477" to-port="0" />
		<edge from-layer="5475" from-port="0" to-layer="5476" to-port="0" />
		<edge from-layer="5476" from-port="1" to-layer="5477" to-port="1" />
		<edge from-layer="5477" from-port="2" to-layer="5478" to-port="1" />
		<edge from-layer="5478" from-port="2" to-layer="5489" to-port="0" />
		<edge from-layer="5479" from-port="2" to-layer="5481" to-port="0" />
		<edge from-layer="5479" from-port="2" to-layer="5487" to-port="1" />
		<edge from-layer="5480" from-port="0" to-layer="5481" to-port="1" />
		<edge from-layer="5481" from-port="2" to-layer="5484" to-port="0" />
		<edge from-layer="5482" from-port="0" to-layer="5483" to-port="0" />
		<edge from-layer="5483" from-port="1" to-layer="5484" to-port="1" />
		<edge from-layer="5484" from-port="2" to-layer="5486" to-port="0" />
		<edge from-layer="5485" from-port="0" to-layer="5486" to-port="1" />
		<edge from-layer="5486" from-port="2" to-layer="5487" to-port="0" />
		<edge from-layer="5487" from-port="2" to-layer="5488" to-port="0" />
		<edge from-layer="5488" from-port="2" to-layer="5489" to-port="1" />
		<edge from-layer="5489" from-port="2" to-layer="5490" to-port="1" />
		<edge from-layer="5490" from-port="2" to-layer="5496" to-port="0" />
		<edge from-layer="5490" from-port="2" to-layer="5512" to-port="0" />
		<edge from-layer="5491" from-port="0" to-layer="5492" to-port="0" />
		<edge from-layer="5492" from-port="1" to-layer="5511" to-port="0" />
		<edge from-layer="5493" from-port="0" to-layer="5494" to-port="0" />
		<edge from-layer="5494" from-port="1" to-layer="5506" to-port="0" />
		<edge from-layer="5495" from-port="0" to-layer="5496" to-port="1" />
		<edge from-layer="5496" from-port="2" to-layer="5499" to-port="0" />
		<edge from-layer="5497" from-port="0" to-layer="5498" to-port="0" />
		<edge from-layer="5498" from-port="1" to-layer="5499" to-port="1" />
		<edge from-layer="5499" from-port="2" to-layer="5502" to-port="0" />
		<edge from-layer="5500" from-port="0" to-layer="5501" to-port="0" />
		<edge from-layer="5501" from-port="1" to-layer="5502" to-port="1" />
		<edge from-layer="5502" from-port="2" to-layer="5505" to-port="0" />
		<edge from-layer="5503" from-port="0" to-layer="5504" to-port="0" />
		<edge from-layer="5504" from-port="1" to-layer="5505" to-port="1" />
		<edge from-layer="5505" from-port="2" to-layer="5506" to-port="1" />
		<edge from-layer="5506" from-port="2" to-layer="5507" to-port="0" />
		<edge from-layer="5507" from-port="1" to-layer="5510" to-port="0" />
		<edge from-layer="5508" from-port="0" to-layer="5509" to-port="0" />
		<edge from-layer="5509" from-port="1" to-layer="5510" to-port="1" />
		<edge from-layer="5510" from-port="2" to-layer="5511" to-port="1" />
		<edge from-layer="5511" from-port="2" to-layer="5512" to-port="1" />
		<edge from-layer="5512" from-port="2" to-layer="5521" to-port="0" />
		<edge from-layer="5512" from-port="2" to-layer="5573" to-port="0" />
		<edge from-layer="5513" from-port="0" to-layer="5514" to-port="0" />
		<edge from-layer="5514" from-port="1" to-layer="5561" to-port="0" />
		<edge from-layer="5515" from-port="0" to-layer="5516" to-port="0" />
		<edge from-layer="5516" from-port="1" to-layer="5549" to-port="1" />
		<edge from-layer="5517" from-port="0" to-layer="5547" to-port="1" />
		<edge from-layer="5518" from-port="0" to-layer="5519" to-port="0" />
		<edge from-layer="5519" from-port="1" to-layer="5531" to-port="0" />
		<edge from-layer="5520" from-port="0" to-layer="5521" to-port="1" />
		<edge from-layer="5521" from-port="2" to-layer="5524" to-port="0" />
		<edge from-layer="5522" from-port="0" to-layer="5523" to-port="0" />
		<edge from-layer="5523" from-port="1" to-layer="5524" to-port="1" />
		<edge from-layer="5524" from-port="2" to-layer="5527" to-port="0" />
		<edge from-layer="5525" from-port="0" to-layer="5526" to-port="0" />
		<edge from-layer="5526" from-port="1" to-layer="5527" to-port="1" />
		<edge from-layer="5527" from-port="2" to-layer="5530" to-port="0" />
		<edge from-layer="5528" from-port="0" to-layer="5529" to-port="0" />
		<edge from-layer="5529" from-port="1" to-layer="5530" to-port="1" />
		<edge from-layer="5530" from-port="2" to-layer="5531" to-port="1" />
		<edge from-layer="5531" from-port="2" to-layer="5534" to-port="0" />
		<edge from-layer="5532" from-port="0" to-layer="5534" to-port="1" />
		<edge from-layer="5533" from-port="0" to-layer="5534" to-port="2" />
		<edge from-layer="5534" from-port="5" to-layer="5551" to-port="0" />
		<edge from-layer="5534" from-port="3" to-layer="5536" to-port="0" />
		<edge from-layer="5534" from-port="4" to-layer="5543" to-port="0" />
		<edge from-layer="5534" from-port="5" to-layer="5562" to-port="0" />
		<edge from-layer="5535" from-port="0" to-layer="5536" to-port="1" />
		<edge from-layer="5536" from-port="2" to-layer="5538" to-port="0" />
		<edge from-layer="5537" from-port="0" to-layer="5538" to-port="1" />
		<edge from-layer="5538" from-port="2" to-layer="5541" to-port="0" />
		<edge from-layer="5539" from-port="0" to-layer="5540" to-port="0" />
		<edge from-layer="5540" from-port="1" to-layer="5541" to-port="1" />
		<edge from-layer="5541" from-port="2" to-layer="5546" to-port="0" />
		<edge from-layer="5542" from-port="0" to-layer="5543" to-port="1" />
		<edge from-layer="5543" from-port="2" to-layer="5545" to-port="0" />
		<edge from-layer="5544" from-port="0" to-layer="5545" to-port="1" />
		<edge from-layer="5545" from-port="2" to-layer="5546" to-port="1" />
		<edge from-layer="5546" from-port="2" to-layer="5547" to-port="2" />
		<edge from-layer="5547" from-port="3" to-layer="5548" to-port="0" />
		<edge from-layer="5548" from-port="1" to-layer="5549" to-port="2" />
		<edge from-layer="5549" from-port="3" to-layer="5554" to-port="0" />
		<edge from-layer="5550" from-port="0" to-layer="5551" to-port="1" />
		<edge from-layer="5551" from-port="2" to-layer="5553" to-port="0" />
		<edge from-layer="5552" from-port="0" to-layer="5553" to-port="1" />
		<edge from-layer="5553" from-port="2" to-layer="5554" to-port="1" />
		<edge from-layer="5554" from-port="2" to-layer="5556" to-port="0" />
		<edge from-layer="5555" from-port="0" to-layer="5556" to-port="1" />
		<edge from-layer="5556" from-port="2" to-layer="5557" to-port="0" />
		<edge from-layer="5557" from-port="2" to-layer="5560" to-port="0" />
		<edge from-layer="5558" from-port="0" to-layer="5559" to-port="0" />
		<edge from-layer="5559" from-port="1" to-layer="5560" to-port="1" />
		<edge from-layer="5560" from-port="2" to-layer="5561" to-port="1" />
		<edge from-layer="5561" from-port="2" to-layer="5572" to-port="0" />
		<edge from-layer="5562" from-port="2" to-layer="5564" to-port="0" />
		<edge from-layer="5562" from-port="2" to-layer="5570" to-port="1" />
		<edge from-layer="5563" from-port="0" to-layer="5564" to-port="1" />
		<edge from-layer="5564" from-port="2" to-layer="5567" to-port="0" />
		<edge from-layer="5565" from-port="0" to-layer="5566" to-port="0" />
		<edge from-layer="5566" from-port="1" to-layer="5567" to-port="1" />
		<edge from-layer="5567" from-port="2" to-layer="5569" to-port="0" />
		<edge from-layer="5568" from-port="0" to-layer="5569" to-port="1" />
		<edge from-layer="5569" from-port="2" to-layer="5570" to-port="0" />
		<edge from-layer="5570" from-port="2" to-layer="5571" to-port="0" />
		<edge from-layer="5571" from-port="2" to-layer="5572" to-port="1" />
		<edge from-layer="5572" from-port="2" to-layer="5573" to-port="1" />
		<edge from-layer="5573" from-port="2" to-layer="5595" to-port="0" />
		<edge from-layer="5573" from-port="2" to-layer="5579" to-port="0" />
		<edge from-layer="5574" from-port="0" to-layer="5575" to-port="0" />
		<edge from-layer="5575" from-port="1" to-layer="5594" to-port="0" />
		<edge from-layer="5576" from-port="0" to-layer="5577" to-port="0" />
		<edge from-layer="5577" from-port="1" to-layer="5589" to-port="0" />
		<edge from-layer="5578" from-port="0" to-layer="5579" to-port="1" />
		<edge from-layer="5579" from-port="2" to-layer="5582" to-port="0" />
		<edge from-layer="5580" from-port="0" to-layer="5581" to-port="0" />
		<edge from-layer="5581" from-port="1" to-layer="5582" to-port="1" />
		<edge from-layer="5582" from-port="2" to-layer="5585" to-port="0" />
		<edge from-layer="5583" from-port="0" to-layer="5584" to-port="0" />
		<edge from-layer="5584" from-port="1" to-layer="5585" to-port="1" />
		<edge from-layer="5585" from-port="2" to-layer="5588" to-port="0" />
		<edge from-layer="5586" from-port="0" to-layer="5587" to-port="0" />
		<edge from-layer="5587" from-port="1" to-layer="5588" to-port="1" />
		<edge from-layer="5588" from-port="2" to-layer="5589" to-port="1" />
		<edge from-layer="5589" from-port="2" to-layer="5590" to-port="0" />
		<edge from-layer="5590" from-port="1" to-layer="5593" to-port="0" />
		<edge from-layer="5591" from-port="0" to-layer="5592" to-port="0" />
		<edge from-layer="5592" from-port="1" to-layer="5593" to-port="1" />
		<edge from-layer="5593" from-port="2" to-layer="5594" to-port="1" />
		<edge from-layer="5594" from-port="2" to-layer="5595" to-port="1" />
		<edge from-layer="5595" from-port="2" to-layer="5656" to-port="0" />
		<edge from-layer="5595" from-port="2" to-layer="5604" to-port="0" />
		<edge from-layer="5596" from-port="0" to-layer="5597" to-port="0" />
		<edge from-layer="5597" from-port="1" to-layer="5644" to-port="0" />
		<edge from-layer="5598" from-port="0" to-layer="5599" to-port="0" />
		<edge from-layer="5599" from-port="1" to-layer="5632" to-port="1" />
		<edge from-layer="5600" from-port="0" to-layer="5630" to-port="1" />
		<edge from-layer="5601" from-port="0" to-layer="5602" to-port="0" />
		<edge from-layer="5602" from-port="1" to-layer="5614" to-port="0" />
		<edge from-layer="5603" from-port="0" to-layer="5604" to-port="1" />
		<edge from-layer="5604" from-port="2" to-layer="5607" to-port="0" />
		<edge from-layer="5605" from-port="0" to-layer="5606" to-port="0" />
		<edge from-layer="5606" from-port="1" to-layer="5607" to-port="1" />
		<edge from-layer="5607" from-port="2" to-layer="5610" to-port="0" />
		<edge from-layer="5608" from-port="0" to-layer="5609" to-port="0" />
		<edge from-layer="5609" from-port="1" to-layer="5610" to-port="1" />
		<edge from-layer="5610" from-port="2" to-layer="5613" to-port="0" />
		<edge from-layer="5611" from-port="0" to-layer="5612" to-port="0" />
		<edge from-layer="5612" from-port="1" to-layer="5613" to-port="1" />
		<edge from-layer="5613" from-port="2" to-layer="5614" to-port="1" />
		<edge from-layer="5614" from-port="2" to-layer="5617" to-port="0" />
		<edge from-layer="5615" from-port="0" to-layer="5617" to-port="1" />
		<edge from-layer="5616" from-port="0" to-layer="5617" to-port="2" />
		<edge from-layer="5617" from-port="4" to-layer="5626" to-port="0" />
		<edge from-layer="5617" from-port="3" to-layer="5619" to-port="0" />
		<edge from-layer="5617" from-port="5" to-layer="5645" to-port="0" />
		<edge from-layer="5617" from-port="5" to-layer="5634" to-port="0" />
		<edge from-layer="5618" from-port="0" to-layer="5619" to-port="1" />
		<edge from-layer="5619" from-port="2" to-layer="5621" to-port="0" />
		<edge from-layer="5620" from-port="0" to-layer="5621" to-port="1" />
		<edge from-layer="5621" from-port="2" to-layer="5624" to-port="0" />
		<edge from-layer="5622" from-port="0" to-layer="5623" to-port="0" />
		<edge from-layer="5623" from-port="1" to-layer="5624" to-port="1" />
		<edge from-layer="5624" from-port="2" to-layer="5629" to-port="0" />
		<edge from-layer="5625" from-port="0" to-layer="5626" to-port="1" />
		<edge from-layer="5626" from-port="2" to-layer="5628" to-port="0" />
		<edge from-layer="5627" from-port="0" to-layer="5628" to-port="1" />
		<edge from-layer="5628" from-port="2" to-layer="5629" to-port="1" />
		<edge from-layer="5629" from-port="2" to-layer="5630" to-port="2" />
		<edge from-layer="5630" from-port="3" to-layer="5631" to-port="0" />
		<edge from-layer="5631" from-port="1" to-layer="5632" to-port="2" />
		<edge from-layer="5632" from-port="3" to-layer="5637" to-port="0" />
		<edge from-layer="5633" from-port="0" to-layer="5634" to-port="1" />
		<edge from-layer="5634" from-port="2" to-layer="5636" to-port="0" />
		<edge from-layer="5635" from-port="0" to-layer="5636" to-port="1" />
		<edge from-layer="5636" from-port="2" to-layer="5637" to-port="1" />
		<edge from-layer="5637" from-port="2" to-layer="5639" to-port="0" />
		<edge from-layer="5638" from-port="0" to-layer="5639" to-port="1" />
		<edge from-layer="5639" from-port="2" to-layer="5640" to-port="0" />
		<edge from-layer="5640" from-port="2" to-layer="5643" to-port="0" />
		<edge from-layer="5641" from-port="0" to-layer="5642" to-port="0" />
		<edge from-layer="5642" from-port="1" to-layer="5643" to-port="1" />
		<edge from-layer="5643" from-port="2" to-layer="5644" to-port="1" />
		<edge from-layer="5644" from-port="2" to-layer="5655" to-port="0" />
		<edge from-layer="5645" from-port="2" to-layer="5653" to-port="1" />
		<edge from-layer="5645" from-port="2" to-layer="5647" to-port="0" />
		<edge from-layer="5646" from-port="0" to-layer="5647" to-port="1" />
		<edge from-layer="5647" from-port="2" to-layer="5650" to-port="0" />
		<edge from-layer="5648" from-port="0" to-layer="5649" to-port="0" />
		<edge from-layer="5649" from-port="1" to-layer="5650" to-port="1" />
		<edge from-layer="5650" from-port="2" to-layer="5652" to-port="0" />
		<edge from-layer="5651" from-port="0" to-layer="5652" to-port="1" />
		<edge from-layer="5652" from-port="2" to-layer="5653" to-port="0" />
		<edge from-layer="5653" from-port="2" to-layer="5654" to-port="0" />
		<edge from-layer="5654" from-port="2" to-layer="5655" to-port="1" />
		<edge from-layer="5655" from-port="2" to-layer="5656" to-port="1" />
		<edge from-layer="5656" from-port="2" to-layer="5678" to-port="0" />
		<edge from-layer="5656" from-port="2" to-layer="5662" to-port="0" />
		<edge from-layer="5657" from-port="0" to-layer="5658" to-port="0" />
		<edge from-layer="5658" from-port="1" to-layer="5677" to-port="0" />
		<edge from-layer="5659" from-port="0" to-layer="5660" to-port="0" />
		<edge from-layer="5660" from-port="1" to-layer="5672" to-port="0" />
		<edge from-layer="5661" from-port="0" to-layer="5662" to-port="1" />
		<edge from-layer="5662" from-port="2" to-layer="5665" to-port="0" />
		<edge from-layer="5663" from-port="0" to-layer="5664" to-port="0" />
		<edge from-layer="5664" from-port="1" to-layer="5665" to-port="1" />
		<edge from-layer="5665" from-port="2" to-layer="5668" to-port="0" />
		<edge from-layer="5666" from-port="0" to-layer="5667" to-port="0" />
		<edge from-layer="5667" from-port="1" to-layer="5668" to-port="1" />
		<edge from-layer="5668" from-port="2" to-layer="5671" to-port="0" />
		<edge from-layer="5669" from-port="0" to-layer="5670" to-port="0" />
		<edge from-layer="5670" from-port="1" to-layer="5671" to-port="1" />
		<edge from-layer="5671" from-port="2" to-layer="5672" to-port="1" />
		<edge from-layer="5672" from-port="2" to-layer="5673" to-port="0" />
		<edge from-layer="5673" from-port="1" to-layer="5676" to-port="0" />
		<edge from-layer="5674" from-port="0" to-layer="5675" to-port="0" />
		<edge from-layer="5675" from-port="1" to-layer="5676" to-port="1" />
		<edge from-layer="5676" from-port="2" to-layer="5677" to-port="1" />
		<edge from-layer="5677" from-port="2" to-layer="5678" to-port="1" />
		<edge from-layer="5678" from-port="2" to-layer="5739" to-port="0" />
		<edge from-layer="5678" from-port="2" to-layer="5687" to-port="0" />
		<edge from-layer="5679" from-port="0" to-layer="5680" to-port="0" />
		<edge from-layer="5680" from-port="1" to-layer="5727" to-port="0" />
		<edge from-layer="5681" from-port="0" to-layer="5682" to-port="0" />
		<edge from-layer="5682" from-port="1" to-layer="5715" to-port="1" />
		<edge from-layer="5683" from-port="0" to-layer="5713" to-port="1" />
		<edge from-layer="5684" from-port="0" to-layer="5685" to-port="0" />
		<edge from-layer="5685" from-port="1" to-layer="5697" to-port="0" />
		<edge from-layer="5686" from-port="0" to-layer="5687" to-port="1" />
		<edge from-layer="5687" from-port="2" to-layer="5690" to-port="0" />
		<edge from-layer="5688" from-port="0" to-layer="5689" to-port="0" />
		<edge from-layer="5689" from-port="1" to-layer="5690" to-port="1" />
		<edge from-layer="5690" from-port="2" to-layer="5693" to-port="0" />
		<edge from-layer="5691" from-port="0" to-layer="5692" to-port="0" />
		<edge from-layer="5692" from-port="1" to-layer="5693" to-port="1" />
		<edge from-layer="5693" from-port="2" to-layer="5696" to-port="0" />
		<edge from-layer="5694" from-port="0" to-layer="5695" to-port="0" />
		<edge from-layer="5695" from-port="1" to-layer="5696" to-port="1" />
		<edge from-layer="5696" from-port="2" to-layer="5697" to-port="1" />
		<edge from-layer="5697" from-port="2" to-layer="5700" to-port="0" />
		<edge from-layer="5698" from-port="0" to-layer="5700" to-port="1" />
		<edge from-layer="5699" from-port="0" to-layer="5700" to-port="2" />
		<edge from-layer="5700" from-port="5" to-layer="5728" to-port="0" />
		<edge from-layer="5700" from-port="5" to-layer="5717" to-port="0" />
		<edge from-layer="5700" from-port="3" to-layer="5702" to-port="0" />
		<edge from-layer="5700" from-port="4" to-layer="5709" to-port="0" />
		<edge from-layer="5701" from-port="0" to-layer="5702" to-port="1" />
		<edge from-layer="5702" from-port="2" to-layer="5704" to-port="0" />
		<edge from-layer="5703" from-port="0" to-layer="5704" to-port="1" />
		<edge from-layer="5704" from-port="2" to-layer="5707" to-port="0" />
		<edge from-layer="5705" from-port="0" to-layer="5706" to-port="0" />
		<edge from-layer="5706" from-port="1" to-layer="5707" to-port="1" />
		<edge from-layer="5707" from-port="2" to-layer="5712" to-port="0" />
		<edge from-layer="5708" from-port="0" to-layer="5709" to-port="1" />
		<edge from-layer="5709" from-port="2" to-layer="5711" to-port="0" />
		<edge from-layer="5710" from-port="0" to-layer="5711" to-port="1" />
		<edge from-layer="5711" from-port="2" to-layer="5712" to-port="1" />
		<edge from-layer="5712" from-port="2" to-layer="5713" to-port="2" />
		<edge from-layer="5713" from-port="3" to-layer="5714" to-port="0" />
		<edge from-layer="5714" from-port="1" to-layer="5715" to-port="2" />
		<edge from-layer="5715" from-port="3" to-layer="5720" to-port="0" />
		<edge from-layer="5716" from-port="0" to-layer="5717" to-port="1" />
		<edge from-layer="5717" from-port="2" to-layer="5719" to-port="0" />
		<edge from-layer="5718" from-port="0" to-layer="5719" to-port="1" />
		<edge from-layer="5719" from-port="2" to-layer="5720" to-port="1" />
		<edge from-layer="5720" from-port="2" to-layer="5722" to-port="0" />
		<edge from-layer="5721" from-port="0" to-layer="5722" to-port="1" />
		<edge from-layer="5722" from-port="2" to-layer="5723" to-port="0" />
		<edge from-layer="5723" from-port="2" to-layer="5726" to-port="0" />
		<edge from-layer="5724" from-port="0" to-layer="5725" to-port="0" />
		<edge from-layer="5725" from-port="1" to-layer="5726" to-port="1" />
		<edge from-layer="5726" from-port="2" to-layer="5727" to-port="1" />
		<edge from-layer="5727" from-port="2" to-layer="5738" to-port="0" />
		<edge from-layer="5728" from-port="2" to-layer="5736" to-port="1" />
		<edge from-layer="5728" from-port="2" to-layer="5730" to-port="0" />
		<edge from-layer="5729" from-port="0" to-layer="5730" to-port="1" />
		<edge from-layer="5730" from-port="2" to-layer="5733" to-port="0" />
		<edge from-layer="5731" from-port="0" to-layer="5732" to-port="0" />
		<edge from-layer="5732" from-port="1" to-layer="5733" to-port="1" />
		<edge from-layer="5733" from-port="2" to-layer="5735" to-port="0" />
		<edge from-layer="5734" from-port="0" to-layer="5735" to-port="1" />
		<edge from-layer="5735" from-port="2" to-layer="5736" to-port="0" />
		<edge from-layer="5736" from-port="2" to-layer="5737" to-port="0" />
		<edge from-layer="5737" from-port="2" to-layer="5738" to-port="1" />
		<edge from-layer="5738" from-port="2" to-layer="5739" to-port="1" />
		<edge from-layer="5739" from-port="2" to-layer="5761" to-port="0" />
		<edge from-layer="5739" from-port="2" to-layer="5745" to-port="0" />
		<edge from-layer="5740" from-port="0" to-layer="5741" to-port="0" />
		<edge from-layer="5741" from-port="1" to-layer="5760" to-port="0" />
		<edge from-layer="5742" from-port="0" to-layer="5743" to-port="0" />
		<edge from-layer="5743" from-port="1" to-layer="5755" to-port="0" />
		<edge from-layer="5744" from-port="0" to-layer="5745" to-port="1" />
		<edge from-layer="5745" from-port="2" to-layer="5748" to-port="0" />
		<edge from-layer="5746" from-port="0" to-layer="5747" to-port="0" />
		<edge from-layer="5747" from-port="1" to-layer="5748" to-port="1" />
		<edge from-layer="5748" from-port="2" to-layer="5751" to-port="0" />
		<edge from-layer="5749" from-port="0" to-layer="5750" to-port="0" />
		<edge from-layer="5750" from-port="1" to-layer="5751" to-port="1" />
		<edge from-layer="5751" from-port="2" to-layer="5754" to-port="0" />
		<edge from-layer="5752" from-port="0" to-layer="5753" to-port="0" />
		<edge from-layer="5753" from-port="1" to-layer="5754" to-port="1" />
		<edge from-layer="5754" from-port="2" to-layer="5755" to-port="1" />
		<edge from-layer="5755" from-port="2" to-layer="5756" to-port="0" />
		<edge from-layer="5756" from-port="1" to-layer="5759" to-port="0" />
		<edge from-layer="5757" from-port="0" to-layer="5758" to-port="0" />
		<edge from-layer="5758" from-port="1" to-layer="5759" to-port="1" />
		<edge from-layer="5759" from-port="2" to-layer="5760" to-port="1" />
		<edge from-layer="5760" from-port="2" to-layer="5761" to-port="1" />
		<edge from-layer="5761" from-port="2" to-layer="5770" to-port="0" />
		<edge from-layer="5761" from-port="2" to-layer="5822" to-port="0" />
		<edge from-layer="5762" from-port="0" to-layer="5763" to-port="0" />
		<edge from-layer="5763" from-port="1" to-layer="5810" to-port="0" />
		<edge from-layer="5764" from-port="0" to-layer="5765" to-port="0" />
		<edge from-layer="5765" from-port="1" to-layer="5798" to-port="1" />
		<edge from-layer="5766" from-port="0" to-layer="5796" to-port="1" />
		<edge from-layer="5767" from-port="0" to-layer="5768" to-port="0" />
		<edge from-layer="5768" from-port="1" to-layer="5780" to-port="0" />
		<edge from-layer="5769" from-port="0" to-layer="5770" to-port="1" />
		<edge from-layer="5770" from-port="2" to-layer="5773" to-port="0" />
		<edge from-layer="5771" from-port="0" to-layer="5772" to-port="0" />
		<edge from-layer="5772" from-port="1" to-layer="5773" to-port="1" />
		<edge from-layer="5773" from-port="2" to-layer="5776" to-port="0" />
		<edge from-layer="5774" from-port="0" to-layer="5775" to-port="0" />
		<edge from-layer="5775" from-port="1" to-layer="5776" to-port="1" />
		<edge from-layer="5776" from-port="2" to-layer="5779" to-port="0" />
		<edge from-layer="5777" from-port="0" to-layer="5778" to-port="0" />
		<edge from-layer="5778" from-port="1" to-layer="5779" to-port="1" />
		<edge from-layer="5779" from-port="2" to-layer="5780" to-port="1" />
		<edge from-layer="5780" from-port="2" to-layer="5783" to-port="0" />
		<edge from-layer="5781" from-port="0" to-layer="5783" to-port="1" />
		<edge from-layer="5782" from-port="0" to-layer="5783" to-port="2" />
		<edge from-layer="5783" from-port="4" to-layer="5792" to-port="0" />
		<edge from-layer="5783" from-port="5" to-layer="5811" to-port="0" />
		<edge from-layer="5783" from-port="5" to-layer="5800" to-port="0" />
		<edge from-layer="5783" from-port="3" to-layer="5785" to-port="0" />
		<edge from-layer="5784" from-port="0" to-layer="5785" to-port="1" />
		<edge from-layer="5785" from-port="2" to-layer="5787" to-port="0" />
		<edge from-layer="5786" from-port="0" to-layer="5787" to-port="1" />
		<edge from-layer="5787" from-port="2" to-layer="5790" to-port="0" />
		<edge from-layer="5788" from-port="0" to-layer="5789" to-port="0" />
		<edge from-layer="5789" from-port="1" to-layer="5790" to-port="1" />
		<edge from-layer="5790" from-port="2" to-layer="5795" to-port="0" />
		<edge from-layer="5791" from-port="0" to-layer="5792" to-port="1" />
		<edge from-layer="5792" from-port="2" to-layer="5794" to-port="0" />
		<edge from-layer="5793" from-port="0" to-layer="5794" to-port="1" />
		<edge from-layer="5794" from-port="2" to-layer="5795" to-port="1" />
		<edge from-layer="5795" from-port="2" to-layer="5796" to-port="2" />
		<edge from-layer="5796" from-port="3" to-layer="5797" to-port="0" />
		<edge from-layer="5797" from-port="1" to-layer="5798" to-port="2" />
		<edge from-layer="5798" from-port="3" to-layer="5803" to-port="0" />
		<edge from-layer="5799" from-port="0" to-layer="5800" to-port="1" />
		<edge from-layer="5800" from-port="2" to-layer="5802" to-port="0" />
		<edge from-layer="5801" from-port="0" to-layer="5802" to-port="1" />
		<edge from-layer="5802" from-port="2" to-layer="5803" to-port="1" />
		<edge from-layer="5803" from-port="2" to-layer="5805" to-port="0" />
		<edge from-layer="5804" from-port="0" to-layer="5805" to-port="1" />
		<edge from-layer="5805" from-port="2" to-layer="5806" to-port="0" />
		<edge from-layer="5806" from-port="2" to-layer="5809" to-port="0" />
		<edge from-layer="5807" from-port="0" to-layer="5808" to-port="0" />
		<edge from-layer="5808" from-port="1" to-layer="5809" to-port="1" />
		<edge from-layer="5809" from-port="2" to-layer="5810" to-port="1" />
		<edge from-layer="5810" from-port="2" to-layer="5821" to-port="0" />
		<edge from-layer="5811" from-port="2" to-layer="5819" to-port="1" />
		<edge from-layer="5811" from-port="2" to-layer="5813" to-port="0" />
		<edge from-layer="5812" from-port="0" to-layer="5813" to-port="1" />
		<edge from-layer="5813" from-port="2" to-layer="5816" to-port="0" />
		<edge from-layer="5814" from-port="0" to-layer="5815" to-port="0" />
		<edge from-layer="5815" from-port="1" to-layer="5816" to-port="1" />
		<edge from-layer="5816" from-port="2" to-layer="5818" to-port="0" />
		<edge from-layer="5817" from-port="0" to-layer="5818" to-port="1" />
		<edge from-layer="5818" from-port="2" to-layer="5819" to-port="0" />
		<edge from-layer="5819" from-port="2" to-layer="5820" to-port="0" />
		<edge from-layer="5820" from-port="2" to-layer="5821" to-port="1" />
		<edge from-layer="5821" from-port="2" to-layer="5822" to-port="1" />
		<edge from-layer="5822" from-port="2" to-layer="5828" to-port="0" />
		<edge from-layer="5822" from-port="2" to-layer="5844" to-port="0" />
		<edge from-layer="5823" from-port="0" to-layer="5824" to-port="0" />
		<edge from-layer="5824" from-port="1" to-layer="5843" to-port="0" />
		<edge from-layer="5825" from-port="0" to-layer="5826" to-port="0" />
		<edge from-layer="5826" from-port="1" to-layer="5838" to-port="0" />
		<edge from-layer="5827" from-port="0" to-layer="5828" to-port="1" />
		<edge from-layer="5828" from-port="2" to-layer="5831" to-port="0" />
		<edge from-layer="5829" from-port="0" to-layer="5830" to-port="0" />
		<edge from-layer="5830" from-port="1" to-layer="5831" to-port="1" />
		<edge from-layer="5831" from-port="2" to-layer="5834" to-port="0" />
		<edge from-layer="5832" from-port="0" to-layer="5833" to-port="0" />
		<edge from-layer="5833" from-port="1" to-layer="5834" to-port="1" />
		<edge from-layer="5834" from-port="2" to-layer="5837" to-port="0" />
		<edge from-layer="5835" from-port="0" to-layer="5836" to-port="0" />
		<edge from-layer="5836" from-port="1" to-layer="5837" to-port="1" />
		<edge from-layer="5837" from-port="2" to-layer="5838" to-port="1" />
		<edge from-layer="5838" from-port="2" to-layer="5839" to-port="0" />
		<edge from-layer="5839" from-port="1" to-layer="5842" to-port="0" />
		<edge from-layer="5840" from-port="0" to-layer="5841" to-port="0" />
		<edge from-layer="5841" from-port="1" to-layer="5842" to-port="1" />
		<edge from-layer="5842" from-port="2" to-layer="5843" to-port="1" />
		<edge from-layer="5843" from-port="2" to-layer="5844" to-port="1" />
		<edge from-layer="5844" from-port="2" to-layer="5905" to-port="0" />
		<edge from-layer="5844" from-port="2" to-layer="5853" to-port="0" />
		<edge from-layer="5845" from-port="0" to-layer="5846" to-port="0" />
		<edge from-layer="5846" from-port="1" to-layer="5893" to-port="0" />
		<edge from-layer="5847" from-port="0" to-layer="5848" to-port="0" />
		<edge from-layer="5848" from-port="1" to-layer="5881" to-port="1" />
		<edge from-layer="5849" from-port="0" to-layer="5879" to-port="1" />
		<edge from-layer="5850" from-port="0" to-layer="5851" to-port="0" />
		<edge from-layer="5851" from-port="1" to-layer="5863" to-port="0" />
		<edge from-layer="5852" from-port="0" to-layer="5853" to-port="1" />
		<edge from-layer="5853" from-port="2" to-layer="5856" to-port="0" />
		<edge from-layer="5854" from-port="0" to-layer="5855" to-port="0" />
		<edge from-layer="5855" from-port="1" to-layer="5856" to-port="1" />
		<edge from-layer="5856" from-port="2" to-layer="5859" to-port="0" />
		<edge from-layer="5857" from-port="0" to-layer="5858" to-port="0" />
		<edge from-layer="5858" from-port="1" to-layer="5859" to-port="1" />
		<edge from-layer="5859" from-port="2" to-layer="5862" to-port="0" />
		<edge from-layer="5860" from-port="0" to-layer="5861" to-port="0" />
		<edge from-layer="5861" from-port="1" to-layer="5862" to-port="1" />
		<edge from-layer="5862" from-port="2" to-layer="5863" to-port="1" />
		<edge from-layer="5863" from-port="2" to-layer="5866" to-port="0" />
		<edge from-layer="5864" from-port="0" to-layer="5866" to-port="1" />
		<edge from-layer="5865" from-port="0" to-layer="5866" to-port="2" />
		<edge from-layer="5866" from-port="5" to-layer="5883" to-port="0" />
		<edge from-layer="5866" from-port="5" to-layer="5894" to-port="0" />
		<edge from-layer="5866" from-port="4" to-layer="5875" to-port="0" />
		<edge from-layer="5866" from-port="3" to-layer="5868" to-port="0" />
		<edge from-layer="5867" from-port="0" to-layer="5868" to-port="1" />
		<edge from-layer="5868" from-port="2" to-layer="5870" to-port="0" />
		<edge from-layer="5869" from-port="0" to-layer="5870" to-port="1" />
		<edge from-layer="5870" from-port="2" to-layer="5873" to-port="0" />
		<edge from-layer="5871" from-port="0" to-layer="5872" to-port="0" />
		<edge from-layer="5872" from-port="1" to-layer="5873" to-port="1" />
		<edge from-layer="5873" from-port="2" to-layer="5878" to-port="0" />
		<edge from-layer="5874" from-port="0" to-layer="5875" to-port="1" />
		<edge from-layer="5875" from-port="2" to-layer="5877" to-port="0" />
		<edge from-layer="5876" from-port="0" to-layer="5877" to-port="1" />
		<edge from-layer="5877" from-port="2" to-layer="5878" to-port="1" />
		<edge from-layer="5878" from-port="2" to-layer="5879" to-port="2" />
		<edge from-layer="5879" from-port="3" to-layer="5880" to-port="0" />
		<edge from-layer="5880" from-port="1" to-layer="5881" to-port="2" />
		<edge from-layer="5881" from-port="3" to-layer="5886" to-port="0" />
		<edge from-layer="5882" from-port="0" to-layer="5883" to-port="1" />
		<edge from-layer="5883" from-port="2" to-layer="5885" to-port="0" />
		<edge from-layer="5884" from-port="0" to-layer="5885" to-port="1" />
		<edge from-layer="5885" from-port="2" to-layer="5886" to-port="1" />
		<edge from-layer="5886" from-port="2" to-layer="5888" to-port="0" />
		<edge from-layer="5887" from-port="0" to-layer="5888" to-port="1" />
		<edge from-layer="5888" from-port="2" to-layer="5889" to-port="0" />
		<edge from-layer="5889" from-port="2" to-layer="5892" to-port="0" />
		<edge from-layer="5890" from-port="0" to-layer="5891" to-port="0" />
		<edge from-layer="5891" from-port="1" to-layer="5892" to-port="1" />
		<edge from-layer="5892" from-port="2" to-layer="5893" to-port="1" />
		<edge from-layer="5893" from-port="2" to-layer="5904" to-port="0" />
		<edge from-layer="5894" from-port="2" to-layer="5902" to-port="1" />
		<edge from-layer="5894" from-port="2" to-layer="5896" to-port="0" />
		<edge from-layer="5895" from-port="0" to-layer="5896" to-port="1" />
		<edge from-layer="5896" from-port="2" to-layer="5899" to-port="0" />
		<edge from-layer="5897" from-port="0" to-layer="5898" to-port="0" />
		<edge from-layer="5898" from-port="1" to-layer="5899" to-port="1" />
		<edge from-layer="5899" from-port="2" to-layer="5901" to-port="0" />
		<edge from-layer="5900" from-port="0" to-layer="5901" to-port="1" />
		<edge from-layer="5901" from-port="2" to-layer="5902" to-port="0" />
		<edge from-layer="5902" from-port="2" to-layer="5903" to-port="0" />
		<edge from-layer="5903" from-port="2" to-layer="5904" to-port="1" />
		<edge from-layer="5904" from-port="2" to-layer="5905" to-port="1" />
		<edge from-layer="5905" from-port="2" to-layer="5927" to-port="0" />
		<edge from-layer="5905" from-port="2" to-layer="5911" to-port="0" />
		<edge from-layer="5906" from-port="0" to-layer="5907" to-port="0" />
		<edge from-layer="5907" from-port="1" to-layer="5926" to-port="0" />
		<edge from-layer="5908" from-port="0" to-layer="5909" to-port="0" />
		<edge from-layer="5909" from-port="1" to-layer="5921" to-port="0" />
		<edge from-layer="5910" from-port="0" to-layer="5911" to-port="1" />
		<edge from-layer="5911" from-port="2" to-layer="5914" to-port="0" />
		<edge from-layer="5912" from-port="0" to-layer="5913" to-port="0" />
		<edge from-layer="5913" from-port="1" to-layer="5914" to-port="1" />
		<edge from-layer="5914" from-port="2" to-layer="5917" to-port="0" />
		<edge from-layer="5915" from-port="0" to-layer="5916" to-port="0" />
		<edge from-layer="5916" from-port="1" to-layer="5917" to-port="1" />
		<edge from-layer="5917" from-port="2" to-layer="5920" to-port="0" />
		<edge from-layer="5918" from-port="0" to-layer="5919" to-port="0" />
		<edge from-layer="5919" from-port="1" to-layer="5920" to-port="1" />
		<edge from-layer="5920" from-port="2" to-layer="5921" to-port="1" />
		<edge from-layer="5921" from-port="2" to-layer="5922" to-port="0" />
		<edge from-layer="5922" from-port="1" to-layer="5925" to-port="0" />
		<edge from-layer="5923" from-port="0" to-layer="5924" to-port="0" />
		<edge from-layer="5924" from-port="1" to-layer="5925" to-port="1" />
		<edge from-layer="5925" from-port="2" to-layer="5926" to-port="1" />
		<edge from-layer="5926" from-port="2" to-layer="5927" to-port="1" />
		<edge from-layer="5927" from-port="2" to-layer="5929" to-port="0" />
		<edge from-layer="5928" from-port="0" to-layer="5929" to-port="1" />
		<edge from-layer="5929" from-port="2" to-layer="5932" to-port="0" />
		<edge from-layer="5930" from-port="0" to-layer="5931" to-port="0" />
		<edge from-layer="5931" from-port="1" to-layer="5932" to-port="1" />
		<edge from-layer="5932" from-port="2" to-layer="5935" to-port="0" />
		<edge from-layer="5933" from-port="0" to-layer="5934" to-port="0" />
		<edge from-layer="5934" from-port="1" to-layer="5935" to-port="1" />
		<edge from-layer="5935" from-port="2" to-layer="5938" to-port="0" />
		<edge from-layer="5936" from-port="0" to-layer="5937" to-port="0" />
		<edge from-layer="5937" from-port="1" to-layer="5938" to-port="1" />
		<edge from-layer="5938" from-port="2" to-layer="5939" to-port="1" />
		<edge from-layer="5939" from-port="2" to-layer="5940" to-port="0" />
	</edges>
	<rt_info>
		<Runtime_version value="2024.6.0-17404-4c0f47d2335-releases/2024/6" />
		<conversion_parameters>
			<is_python_object value="False" />
		</conversion_parameters>
	</rt_info>
</net>
